<?xml version="1.0" ?>
<net name="SynthesisNetwork" version="10">
	<layers>
		<layer id="0" name="style" type="Parameter" version="opset1">
			<data shape="1, 512" element_type="f32"/>
			<output>
				<port id="0" precision="FP32" names="style">
					<dim>1</dim>
					<dim>512</dim>
				</port>
			</output>
		</layer>
		<layer id="1" name="m.layers.6.to_img.conv.modulation.weight" type="Const" version="opset1">
			<data element_type="f32" shape="64, 512" offset="0" size="131072"/>
			<output>
				<port id="0" precision="FP32" names="m.layers.6.to_img.conv.modulation.weight">
					<dim>64</dim>
					<dim>512</dim>
				</port>
			</output>
		</layer>
		<layer id="2" name="Gemm_743/WithoutBiases" type="MatMul" version="opset1">
			<data transpose_a="false" transpose_b="true"/>
			<input>
				<port id="0" precision="FP32">
					<dim>1</dim>
					<dim>512</dim>
				</port>
				<port id="1" precision="FP32">
					<dim>64</dim>
					<dim>512</dim>
				</port>
			</input>
			<output>
				<port id="2" precision="FP32">
					<dim>1</dim>
					<dim>64</dim>
				</port>
			</output>
		</layer>
		<layer id="3" name="m.layers.6.to_img.conv.modulation.bias" type="Const" version="opset1">
			<data element_type="f32" shape="1, 64" offset="131072" size="256"/>
			<output>
				<port id="0" precision="FP32" names="m.layers.6.to_img.conv.modulation.bias">
					<dim>1</dim>
					<dim>64</dim>
				</port>
			</output>
		</layer>
		<layer id="4" name="Gemm_743" type="Add" version="opset1">
			<data auto_broadcast="numpy"/>
			<input>
				<port id="0" precision="FP32">
					<dim>1</dim>
					<dim>64</dim>
				</port>
				<port id="1" precision="FP32">
					<dim>1</dim>
					<dim>64</dim>
				</port>
			</input>
			<output>
				<port id="2" precision="FP32" names="1445">
					<dim>1</dim>
					<dim>64</dim>
				</port>
			</output>
		</layer>
		<layer id="5" name="Shape_744" type="ShapeOf" version="opset3">
			<data output_type="i64"/>
			<input>
				<port id="0" precision="FP32">
					<dim>1</dim>
					<dim>512</dim>
				</port>
			</input>
			<output>
				<port id="1" precision="I64" names="1446">
					<dim>2</dim>
				</port>
			</output>
		</layer>
		<layer id="6" name="Constant_745" type="Const" version="opset1">
			<data element_type="i32" shape="" offset="131328" size="4"/>
			<output>
				<port id="0" precision="I32" names="1447"/>
			</output>
		</layer>
		<layer id="7" name="Gather_746/axis" type="Const" version="opset1">
			<data element_type="i64" shape="" offset="131332" size="8"/>
			<output>
				<port id="0" precision="I64"/>
			</output>
		</layer>
		<layer id="8" name="Gather_7461546" type="Gather" version="opset7">
			<data batch_dims="0"/>
			<input>
				<port id="0" precision="I64">
					<dim>2</dim>
				</port>
				<port id="1" precision="I32"/>
				<port id="2" precision="I64"/>
			</input>
			<output>
				<port id="3" precision="I64" names="1448"/>
			</output>
		</layer>
		<layer id="9" name="Unsqueeze_747/Dims" type="Const" version="opset1">
			<data element_type="i64" shape="1" offset="131332" size="8"/>
			<output>
				<port id="0" precision="I64">
					<dim>1</dim>
				</port>
			</output>
		</layer>
		<layer id="10" name="Unsqueeze_747/Unsqueeze" type="Unsqueeze" version="opset1">
			<input>
				<port id="0" precision="I64"/>
				<port id="1" precision="I64">
					<dim>1</dim>
				</port>
			</input>
			<output>
				<port id="2" precision="I64" names="1452">
					<dim>1</dim>
				</port>
			</output>
		</layer>
		<layer id="11" name="1819" type="Const" version="opset1">
			<data element_type="i64" shape="1" offset="131340" size="8"/>
			<output>
				<port id="0" precision="I64" names="1819">
					<dim>1</dim>
				</port>
			</output>
		</layer>
		<layer id="12" name="1820" type="Const" version="opset1">
			<data element_type="i64" shape="1" offset="131348" size="8"/>
			<output>
				<port id="0" precision="I64" names="1820">
					<dim>1</dim>
				</port>
			</output>
		</layer>
		<layer id="13" name="1821" type="Const" version="opset1">
			<data element_type="i64" shape="1" offset="131348" size="8"/>
			<output>
				<port id="0" precision="I64" names="1821">
					<dim>1</dim>
				</port>
			</output>
		</layer>
		<layer id="14" name="Concat_748" type="Concat" version="opset1">
			<data axis="0"/>
			<input>
				<port id="0" precision="I64">
					<dim>1</dim>
				</port>
				<port id="1" precision="I64">
					<dim>1</dim>
				</port>
				<port id="2" precision="I64">
					<dim>1</dim>
				</port>
				<port id="3" precision="I64">
					<dim>1</dim>
				</port>
			</input>
			<output>
				<port id="4" precision="I64" names="1456">
					<dim>4</dim>
				</port>
			</output>
		</layer>
		<layer id="15" name="Reshape_749" type="Reshape" version="opset1">
			<data special_zero="true"/>
			<input>
				<port id="0" precision="FP32">
					<dim>1</dim>
					<dim>64</dim>
				</port>
				<port id="1" precision="I64">
					<dim>4</dim>
				</port>
			</input>
			<output>
				<port id="2" precision="FP32" names="1457">
					<dim>1</dim>
					<dim>64</dim>
					<dim>1</dim>
					<dim>1</dim>
				</port>
			</output>
		</layer>
		<layer id="16" name="Constant_750" type="Const" version="opset1">
			<data element_type="f32" shape="1, 1, 1, 1" offset="131356" size="4"/>
			<output>
				<port id="0" precision="FP32" names="1458">
					<dim>1</dim>
					<dim>1</dim>
					<dim>1</dim>
					<dim>1</dim>
				</port>
			</output>
		</layer>
		<layer id="17" name="Mul_751" type="Multiply" version="opset1">
			<data auto_broadcast="numpy"/>
			<input>
				<port id="0" precision="FP32">
					<dim>1</dim>
					<dim>64</dim>
					<dim>1</dim>
					<dim>1</dim>
				</port>
				<port id="1" precision="FP32">
					<dim>1</dim>
					<dim>1</dim>
					<dim>1</dim>
					<dim>1</dim>
				</port>
			</input>
			<output>
				<port id="2" precision="FP32" names="1459">
					<dim>1</dim>
					<dim>64</dim>
					<dim>1</dim>
					<dim>1</dim>
				</port>
			</output>
		</layer>
		<layer id="18" name="m.layers.6.conv2.conv.modulation.weight" type="Const" version="opset1">
			<data element_type="f32" shape="64, 512" offset="131360" size="131072"/>
			<output>
				<port id="0" precision="FP32" names="m.layers.6.conv2.conv.modulation.weight">
					<dim>64</dim>
					<dim>512</dim>
				</port>
			</output>
		</layer>
		<layer id="19" name="Gemm_710/WithoutBiases" type="MatMul" version="opset1">
			<data transpose_a="false" transpose_b="true"/>
			<input>
				<port id="0" precision="FP32">
					<dim>1</dim>
					<dim>512</dim>
				</port>
				<port id="1" precision="FP32">
					<dim>64</dim>
					<dim>512</dim>
				</port>
			</input>
			<output>
				<port id="2" precision="FP32">
					<dim>1</dim>
					<dim>64</dim>
				</port>
			</output>
		</layer>
		<layer id="20" name="m.layers.6.conv2.conv.modulation.bias" type="Const" version="opset1">
			<data element_type="f32" shape="1, 64" offset="262432" size="256"/>
			<output>
				<port id="0" precision="FP32" names="m.layers.6.conv2.conv.modulation.bias">
					<dim>1</dim>
					<dim>64</dim>
				</port>
			</output>
		</layer>
		<layer id="21" name="Gemm_710" type="Add" version="opset1">
			<data auto_broadcast="numpy"/>
			<input>
				<port id="0" precision="FP32">
					<dim>1</dim>
					<dim>64</dim>
				</port>
				<port id="1" precision="FP32">
					<dim>1</dim>
					<dim>64</dim>
				</port>
			</input>
			<output>
				<port id="2" precision="FP32" names="1393">
					<dim>1</dim>
					<dim>64</dim>
				</port>
			</output>
		</layer>
		<layer id="22" name="Shape_711" type="ShapeOf" version="opset3">
			<data output_type="i64"/>
			<input>
				<port id="0" precision="FP32">
					<dim>1</dim>
					<dim>512</dim>
				</port>
			</input>
			<output>
				<port id="1" precision="I64" names="1394">
					<dim>2</dim>
				</port>
			</output>
		</layer>
		<layer id="23" name="Constant_712" type="Const" version="opset1">
			<data element_type="i32" shape="" offset="131328" size="4"/>
			<output>
				<port id="0" precision="I32" names="1395"/>
			</output>
		</layer>
		<layer id="24" name="Gather_713/axis" type="Const" version="opset1">
			<data element_type="i64" shape="" offset="131332" size="8"/>
			<output>
				<port id="0" precision="I64"/>
			</output>
		</layer>
		<layer id="25" name="Gather_7131498" type="Gather" version="opset7">
			<data batch_dims="0"/>
			<input>
				<port id="0" precision="I64">
					<dim>2</dim>
				</port>
				<port id="1" precision="I32"/>
				<port id="2" precision="I64"/>
			</input>
			<output>
				<port id="3" precision="I64" names="1396"/>
			</output>
		</layer>
		<layer id="26" name="Unsqueeze_714/Dims" type="Const" version="opset1">
			<data element_type="i64" shape="1" offset="131332" size="8"/>
			<output>
				<port id="0" precision="I64">
					<dim>1</dim>
				</port>
			</output>
		</layer>
		<layer id="27" name="Unsqueeze_714/Unsqueeze" type="Unsqueeze" version="opset1">
			<input>
				<port id="0" precision="I64"/>
				<port id="1" precision="I64">
					<dim>1</dim>
				</port>
			</input>
			<output>
				<port id="2" precision="I64" names="1400">
					<dim>1</dim>
				</port>
			</output>
		</layer>
		<layer id="28" name="1807" type="Const" version="opset1">
			<data element_type="i64" shape="1" offset="131340" size="8"/>
			<output>
				<port id="0" precision="I64" names="1807">
					<dim>1</dim>
				</port>
			</output>
		</layer>
		<layer id="29" name="1808" type="Const" version="opset1">
			<data element_type="i64" shape="1" offset="131348" size="8"/>
			<output>
				<port id="0" precision="I64" names="1808">
					<dim>1</dim>
				</port>
			</output>
		</layer>
		<layer id="30" name="1809" type="Const" version="opset1">
			<data element_type="i64" shape="1" offset="131348" size="8"/>
			<output>
				<port id="0" precision="I64" names="1809">
					<dim>1</dim>
				</port>
			</output>
		</layer>
		<layer id="31" name="Concat_715" type="Concat" version="opset1">
			<data axis="0"/>
			<input>
				<port id="0" precision="I64">
					<dim>1</dim>
				</port>
				<port id="1" precision="I64">
					<dim>1</dim>
				</port>
				<port id="2" precision="I64">
					<dim>1</dim>
				</port>
				<port id="3" precision="I64">
					<dim>1</dim>
				</port>
			</input>
			<output>
				<port id="4" precision="I64" names="1404">
					<dim>4</dim>
				</port>
			</output>
		</layer>
		<layer id="32" name="Reshape_716" type="Reshape" version="opset1">
			<data special_zero="true"/>
			<input>
				<port id="0" precision="FP32">
					<dim>1</dim>
					<dim>64</dim>
				</port>
				<port id="1" precision="I64">
					<dim>4</dim>
				</port>
			</input>
			<output>
				<port id="2" precision="FP32" names="1405">
					<dim>1</dim>
					<dim>64</dim>
					<dim>1</dim>
					<dim>1</dim>
				</port>
			</output>
		</layer>
		<layer id="33" name="Constant_717" type="Const" version="opset1">
			<data element_type="f32" shape="1, 1, 1, 1" offset="262688" size="4"/>
			<output>
				<port id="0" precision="FP32" names="1406">
					<dim>1</dim>
					<dim>1</dim>
					<dim>1</dim>
					<dim>1</dim>
				</port>
			</output>
		</layer>
		<layer id="34" name="Mul_718" type="Multiply" version="opset1">
			<data auto_broadcast="numpy"/>
			<input>
				<port id="0" precision="FP32">
					<dim>1</dim>
					<dim>64</dim>
					<dim>1</dim>
					<dim>1</dim>
				</port>
				<port id="1" precision="FP32">
					<dim>1</dim>
					<dim>1</dim>
					<dim>1</dim>
					<dim>1</dim>
				</port>
			</input>
			<output>
				<port id="2" precision="FP32" names="1407">
					<dim>1</dim>
					<dim>64</dim>
					<dim>1</dim>
					<dim>1</dim>
				</port>
			</output>
		</layer>
		<layer id="35" name="m.layers.6.conv1.conv.modulation.weight" type="Const" version="opset1">
			<data element_type="f32" shape="32, 512" offset="262692" size="65536"/>
			<output>
				<port id="0" precision="FP32" names="m.layers.6.conv1.conv.modulation.weight">
					<dim>32</dim>
					<dim>512</dim>
				</port>
			</output>
		</layer>
		<layer id="36" name="Gemm_677/WithoutBiases" type="MatMul" version="opset1">
			<data transpose_a="false" transpose_b="true"/>
			<input>
				<port id="0" precision="FP32">
					<dim>1</dim>
					<dim>512</dim>
				</port>
				<port id="1" precision="FP32">
					<dim>32</dim>
					<dim>512</dim>
				</port>
			</input>
			<output>
				<port id="2" precision="FP32">
					<dim>1</dim>
					<dim>32</dim>
				</port>
			</output>
		</layer>
		<layer id="37" name="m.layers.6.conv1.conv.modulation.bias" type="Const" version="opset1">
			<data element_type="f32" shape="1, 32" offset="328228" size="128"/>
			<output>
				<port id="0" precision="FP32" names="m.layers.6.conv1.conv.modulation.bias">
					<dim>1</dim>
					<dim>32</dim>
				</port>
			</output>
		</layer>
		<layer id="38" name="Gemm_677" type="Add" version="opset1">
			<data auto_broadcast="numpy"/>
			<input>
				<port id="0" precision="FP32">
					<dim>1</dim>
					<dim>32</dim>
				</port>
				<port id="1" precision="FP32">
					<dim>1</dim>
					<dim>32</dim>
				</port>
			</input>
			<output>
				<port id="2" precision="FP32" names="1341">
					<dim>1</dim>
					<dim>32</dim>
				</port>
			</output>
		</layer>
		<layer id="39" name="Shape_678" type="ShapeOf" version="opset3">
			<data output_type="i64"/>
			<input>
				<port id="0" precision="FP32">
					<dim>1</dim>
					<dim>512</dim>
				</port>
			</input>
			<output>
				<port id="1" precision="I64" names="1342">
					<dim>2</dim>
				</port>
			</output>
		</layer>
		<layer id="40" name="Constant_679" type="Const" version="opset1">
			<data element_type="i32" shape="" offset="131328" size="4"/>
			<output>
				<port id="0" precision="I32" names="1343"/>
			</output>
		</layer>
		<layer id="41" name="Gather_680/axis" type="Const" version="opset1">
			<data element_type="i64" shape="" offset="131332" size="8"/>
			<output>
				<port id="0" precision="I64"/>
			</output>
		</layer>
		<layer id="42" name="Gather_6801458" type="Gather" version="opset7">
			<data batch_dims="0"/>
			<input>
				<port id="0" precision="I64">
					<dim>2</dim>
				</port>
				<port id="1" precision="I32"/>
				<port id="2" precision="I64"/>
			</input>
			<output>
				<port id="3" precision="I64" names="1344"/>
			</output>
		</layer>
		<layer id="43" name="Unsqueeze_681/Dims" type="Const" version="opset1">
			<data element_type="i64" shape="1" offset="131332" size="8"/>
			<output>
				<port id="0" precision="I64">
					<dim>1</dim>
				</port>
			</output>
		</layer>
		<layer id="44" name="Unsqueeze_681/Unsqueeze" type="Unsqueeze" version="opset1">
			<input>
				<port id="0" precision="I64"/>
				<port id="1" precision="I64">
					<dim>1</dim>
				</port>
			</input>
			<output>
				<port id="2" precision="I64" names="1348">
					<dim>1</dim>
				</port>
			</output>
		</layer>
		<layer id="45" name="1795" type="Const" version="opset1">
			<data element_type="i64" shape="1" offset="131340" size="8"/>
			<output>
				<port id="0" precision="I64" names="1795">
					<dim>1</dim>
				</port>
			</output>
		</layer>
		<layer id="46" name="1796" type="Const" version="opset1">
			<data element_type="i64" shape="1" offset="131348" size="8"/>
			<output>
				<port id="0" precision="I64" names="1796">
					<dim>1</dim>
				</port>
			</output>
		</layer>
		<layer id="47" name="1797" type="Const" version="opset1">
			<data element_type="i64" shape="1" offset="131348" size="8"/>
			<output>
				<port id="0" precision="I64" names="1797">
					<dim>1</dim>
				</port>
			</output>
		</layer>
		<layer id="48" name="Concat_682" type="Concat" version="opset1">
			<data axis="0"/>
			<input>
				<port id="0" precision="I64">
					<dim>1</dim>
				</port>
				<port id="1" precision="I64">
					<dim>1</dim>
				</port>
				<port id="2" precision="I64">
					<dim>1</dim>
				</port>
				<port id="3" precision="I64">
					<dim>1</dim>
				</port>
			</input>
			<output>
				<port id="4" precision="I64" names="1352">
					<dim>4</dim>
				</port>
			</output>
		</layer>
		<layer id="49" name="Reshape_683" type="Reshape" version="opset1">
			<data special_zero="true"/>
			<input>
				<port id="0" precision="FP32">
					<dim>1</dim>
					<dim>32</dim>
				</port>
				<port id="1" precision="I64">
					<dim>4</dim>
				</port>
			</input>
			<output>
				<port id="2" precision="FP32" names="1353">
					<dim>1</dim>
					<dim>32</dim>
					<dim>1</dim>
					<dim>1</dim>
				</port>
			</output>
		</layer>
		<layer id="50" name="Constant_684" type="Const" version="opset1">
			<data element_type="f32" shape="1, 1, 1, 1" offset="328356" size="4"/>
			<output>
				<port id="0" precision="FP32" names="1354">
					<dim>1</dim>
					<dim>1</dim>
					<dim>1</dim>
					<dim>1</dim>
				</port>
			</output>
		</layer>
		<layer id="51" name="Mul_685" type="Multiply" version="opset1">
			<data auto_broadcast="numpy"/>
			<input>
				<port id="0" precision="FP32">
					<dim>1</dim>
					<dim>32</dim>
					<dim>1</dim>
					<dim>1</dim>
				</port>
				<port id="1" precision="FP32">
					<dim>1</dim>
					<dim>1</dim>
					<dim>1</dim>
					<dim>1</dim>
				</port>
			</input>
			<output>
				<port id="2" precision="FP32" names="1355">
					<dim>1</dim>
					<dim>32</dim>
					<dim>1</dim>
					<dim>1</dim>
				</port>
			</output>
		</layer>
		<layer id="52" name="m.layers.6.up.modulation.weight" type="Const" version="opset1">
			<data element_type="f32" shape="128, 512" offset="328360" size="262144"/>
			<output>
				<port id="0" precision="FP32" names="m.layers.6.up.modulation.weight">
					<dim>128</dim>
					<dim>512</dim>
				</port>
			</output>
		</layer>
		<layer id="53" name="Gemm_652/WithoutBiases" type="MatMul" version="opset1">
			<data transpose_a="false" transpose_b="true"/>
			<input>
				<port id="0" precision="FP32">
					<dim>1</dim>
					<dim>512</dim>
				</port>
				<port id="1" precision="FP32">
					<dim>128</dim>
					<dim>512</dim>
				</port>
			</input>
			<output>
				<port id="2" precision="FP32">
					<dim>1</dim>
					<dim>128</dim>
				</port>
			</output>
		</layer>
		<layer id="54" name="m.layers.6.up.modulation.bias" type="Const" version="opset1">
			<data element_type="f32" shape="1, 128" offset="590504" size="512"/>
			<output>
				<port id="0" precision="FP32" names="m.layers.6.up.modulation.bias">
					<dim>1</dim>
					<dim>128</dim>
				</port>
			</output>
		</layer>
		<layer id="55" name="Gemm_652" type="Add" version="opset1">
			<data auto_broadcast="numpy"/>
			<input>
				<port id="0" precision="FP32">
					<dim>1</dim>
					<dim>128</dim>
				</port>
				<port id="1" precision="FP32">
					<dim>1</dim>
					<dim>128</dim>
				</port>
			</input>
			<output>
				<port id="2" precision="FP32" names="1286">
					<dim>1</dim>
					<dim>128</dim>
				</port>
			</output>
		</layer>
		<layer id="56" name="m.layers.5.conv2.conv.modulation.weight" type="Const" version="opset1">
			<data element_type="f32" shape="128, 512" offset="591016" size="262144"/>
			<output>
				<port id="0" precision="FP32" names="m.layers.5.conv2.conv.modulation.weight">
					<dim>128</dim>
					<dim>512</dim>
				</port>
			</output>
		</layer>
		<layer id="57" name="Gemm_610/WithoutBiases" type="MatMul" version="opset1">
			<data transpose_a="false" transpose_b="true"/>
			<input>
				<port id="0" precision="FP32">
					<dim>1</dim>
					<dim>512</dim>
				</port>
				<port id="1" precision="FP32">
					<dim>128</dim>
					<dim>512</dim>
				</port>
			</input>
			<output>
				<port id="2" precision="FP32">
					<dim>1</dim>
					<dim>128</dim>
				</port>
			</output>
		</layer>
		<layer id="58" name="m.layers.5.conv2.conv.modulation.bias" type="Const" version="opset1">
			<data element_type="f32" shape="1, 128" offset="853160" size="512"/>
			<output>
				<port id="0" precision="FP32" names="m.layers.5.conv2.conv.modulation.bias">
					<dim>1</dim>
					<dim>128</dim>
				</port>
			</output>
		</layer>
		<layer id="59" name="Gemm_610" type="Add" version="opset1">
			<data auto_broadcast="numpy"/>
			<input>
				<port id="0" precision="FP32">
					<dim>1</dim>
					<dim>128</dim>
				</port>
				<port id="1" precision="FP32">
					<dim>1</dim>
					<dim>128</dim>
				</port>
			</input>
			<output>
				<port id="2" precision="FP32" names="1225">
					<dim>1</dim>
					<dim>128</dim>
				</port>
			</output>
		</layer>
		<layer id="60" name="Shape_611" type="ShapeOf" version="opset3">
			<data output_type="i64"/>
			<input>
				<port id="0" precision="FP32">
					<dim>1</dim>
					<dim>512</dim>
				</port>
			</input>
			<output>
				<port id="1" precision="I64" names="1226">
					<dim>2</dim>
				</port>
			</output>
		</layer>
		<layer id="61" name="Constant_612" type="Const" version="opset1">
			<data element_type="i32" shape="" offset="131328" size="4"/>
			<output>
				<port id="0" precision="I32" names="1227"/>
			</output>
		</layer>
		<layer id="62" name="Gather_613/axis" type="Const" version="opset1">
			<data element_type="i64" shape="" offset="131332" size="8"/>
			<output>
				<port id="0" precision="I64"/>
			</output>
		</layer>
		<layer id="63" name="Gather_6131508" type="Gather" version="opset7">
			<data batch_dims="0"/>
			<input>
				<port id="0" precision="I64">
					<dim>2</dim>
				</port>
				<port id="1" precision="I32"/>
				<port id="2" precision="I64"/>
			</input>
			<output>
				<port id="3" precision="I64" names="1228"/>
			</output>
		</layer>
		<layer id="64" name="Unsqueeze_614/Dims" type="Const" version="opset1">
			<data element_type="i64" shape="1" offset="131332" size="8"/>
			<output>
				<port id="0" precision="I64">
					<dim>1</dim>
				</port>
			</output>
		</layer>
		<layer id="65" name="Unsqueeze_614/Unsqueeze" type="Unsqueeze" version="opset1">
			<input>
				<port id="0" precision="I64"/>
				<port id="1" precision="I64">
					<dim>1</dim>
				</port>
			</input>
			<output>
				<port id="2" precision="I64" names="1232">
					<dim>1</dim>
				</port>
			</output>
		</layer>
		<layer id="66" name="1766" type="Const" version="opset1">
			<data element_type="i64" shape="1" offset="131340" size="8"/>
			<output>
				<port id="0" precision="I64" names="1766">
					<dim>1</dim>
				</port>
			</output>
		</layer>
		<layer id="67" name="1767" type="Const" version="opset1">
			<data element_type="i64" shape="1" offset="131348" size="8"/>
			<output>
				<port id="0" precision="I64" names="1767">
					<dim>1</dim>
				</port>
			</output>
		</layer>
		<layer id="68" name="1768" type="Const" version="opset1">
			<data element_type="i64" shape="1" offset="131348" size="8"/>
			<output>
				<port id="0" precision="I64" names="1768">
					<dim>1</dim>
				</port>
			</output>
		</layer>
		<layer id="69" name="Concat_615" type="Concat" version="opset1">
			<data axis="0"/>
			<input>
				<port id="0" precision="I64">
					<dim>1</dim>
				</port>
				<port id="1" precision="I64">
					<dim>1</dim>
				</port>
				<port id="2" precision="I64">
					<dim>1</dim>
				</port>
				<port id="3" precision="I64">
					<dim>1</dim>
				</port>
			</input>
			<output>
				<port id="4" precision="I64" names="1236">
					<dim>4</dim>
				</port>
			</output>
		</layer>
		<layer id="70" name="Reshape_616" type="Reshape" version="opset1">
			<data special_zero="true"/>
			<input>
				<port id="0" precision="FP32">
					<dim>1</dim>
					<dim>128</dim>
				</port>
				<port id="1" precision="I64">
					<dim>4</dim>
				</port>
			</input>
			<output>
				<port id="2" precision="FP32" names="1237">
					<dim>1</dim>
					<dim>128</dim>
					<dim>1</dim>
					<dim>1</dim>
				</port>
			</output>
		</layer>
		<layer id="71" name="Constant_617" type="Const" version="opset1">
			<data element_type="f32" shape="1, 1, 1, 1" offset="853672" size="4"/>
			<output>
				<port id="0" precision="FP32" names="1238">
					<dim>1</dim>
					<dim>1</dim>
					<dim>1</dim>
					<dim>1</dim>
				</port>
			</output>
		</layer>
		<layer id="72" name="Mul_618" type="Multiply" version="opset1">
			<data auto_broadcast="numpy"/>
			<input>
				<port id="0" precision="FP32">
					<dim>1</dim>
					<dim>128</dim>
					<dim>1</dim>
					<dim>1</dim>
				</port>
				<port id="1" precision="FP32">
					<dim>1</dim>
					<dim>1</dim>
					<dim>1</dim>
					<dim>1</dim>
				</port>
			</input>
			<output>
				<port id="2" precision="FP32" names="1239">
					<dim>1</dim>
					<dim>128</dim>
					<dim>1</dim>
					<dim>1</dim>
				</port>
			</output>
		</layer>
		<layer id="73" name="m.layers.5.conv1.conv.modulation.weight" type="Const" version="opset1">
			<data element_type="f32" shape="64, 512" offset="853676" size="131072"/>
			<output>
				<port id="0" precision="FP32" names="m.layers.5.conv1.conv.modulation.weight">
					<dim>64</dim>
					<dim>512</dim>
				</port>
			</output>
		</layer>
		<layer id="74" name="Gemm_577/WithoutBiases" type="MatMul" version="opset1">
			<data transpose_a="false" transpose_b="true"/>
			<input>
				<port id="0" precision="FP32">
					<dim>1</dim>
					<dim>512</dim>
				</port>
				<port id="1" precision="FP32">
					<dim>64</dim>
					<dim>512</dim>
				</port>
			</input>
			<output>
				<port id="2" precision="FP32">
					<dim>1</dim>
					<dim>64</dim>
				</port>
			</output>
		</layer>
		<layer id="75" name="m.layers.5.conv1.conv.modulation.bias" type="Const" version="opset1">
			<data element_type="f32" shape="1, 64" offset="984748" size="256"/>
			<output>
				<port id="0" precision="FP32" names="m.layers.5.conv1.conv.modulation.bias">
					<dim>1</dim>
					<dim>64</dim>
				</port>
			</output>
		</layer>
		<layer id="76" name="Gemm_577" type="Add" version="opset1">
			<data auto_broadcast="numpy"/>
			<input>
				<port id="0" precision="FP32">
					<dim>1</dim>
					<dim>64</dim>
				</port>
				<port id="1" precision="FP32">
					<dim>1</dim>
					<dim>64</dim>
				</port>
			</input>
			<output>
				<port id="2" precision="FP32" names="1173">
					<dim>1</dim>
					<dim>64</dim>
				</port>
			</output>
		</layer>
		<layer id="77" name="Shape_578" type="ShapeOf" version="opset3">
			<data output_type="i64"/>
			<input>
				<port id="0" precision="FP32">
					<dim>1</dim>
					<dim>512</dim>
				</port>
			</input>
			<output>
				<port id="1" precision="I64" names="1174">
					<dim>2</dim>
				</port>
			</output>
		</layer>
		<layer id="78" name="Constant_579" type="Const" version="opset1">
			<data element_type="i32" shape="" offset="131328" size="4"/>
			<output>
				<port id="0" precision="I32" names="1175"/>
			</output>
		</layer>
		<layer id="79" name="Gather_580/axis" type="Const" version="opset1">
			<data element_type="i64" shape="" offset="131332" size="8"/>
			<output>
				<port id="0" precision="I64"/>
			</output>
		</layer>
		<layer id="80" name="Gather_5801492" type="Gather" version="opset7">
			<data batch_dims="0"/>
			<input>
				<port id="0" precision="I64">
					<dim>2</dim>
				</port>
				<port id="1" precision="I32"/>
				<port id="2" precision="I64"/>
			</input>
			<output>
				<port id="3" precision="I64" names="1176"/>
			</output>
		</layer>
		<layer id="81" name="Unsqueeze_581/Dims" type="Const" version="opset1">
			<data element_type="i64" shape="1" offset="131332" size="8"/>
			<output>
				<port id="0" precision="I64">
					<dim>1</dim>
				</port>
			</output>
		</layer>
		<layer id="82" name="Unsqueeze_581/Unsqueeze" type="Unsqueeze" version="opset1">
			<input>
				<port id="0" precision="I64"/>
				<port id="1" precision="I64">
					<dim>1</dim>
				</port>
			</input>
			<output>
				<port id="2" precision="I64" names="1180">
					<dim>1</dim>
				</port>
			</output>
		</layer>
		<layer id="83" name="1754" type="Const" version="opset1">
			<data element_type="i64" shape="1" offset="131340" size="8"/>
			<output>
				<port id="0" precision="I64" names="1754">
					<dim>1</dim>
				</port>
			</output>
		</layer>
		<layer id="84" name="1755" type="Const" version="opset1">
			<data element_type="i64" shape="1" offset="131348" size="8"/>
			<output>
				<port id="0" precision="I64" names="1755">
					<dim>1</dim>
				</port>
			</output>
		</layer>
		<layer id="85" name="1756" type="Const" version="opset1">
			<data element_type="i64" shape="1" offset="131348" size="8"/>
			<output>
				<port id="0" precision="I64" names="1756">
					<dim>1</dim>
				</port>
			</output>
		</layer>
		<layer id="86" name="Concat_582" type="Concat" version="opset1">
			<data axis="0"/>
			<input>
				<port id="0" precision="I64">
					<dim>1</dim>
				</port>
				<port id="1" precision="I64">
					<dim>1</dim>
				</port>
				<port id="2" precision="I64">
					<dim>1</dim>
				</port>
				<port id="3" precision="I64">
					<dim>1</dim>
				</port>
			</input>
			<output>
				<port id="4" precision="I64" names="1184">
					<dim>4</dim>
				</port>
			</output>
		</layer>
		<layer id="87" name="Reshape_583" type="Reshape" version="opset1">
			<data special_zero="true"/>
			<input>
				<port id="0" precision="FP32">
					<dim>1</dim>
					<dim>64</dim>
				</port>
				<port id="1" precision="I64">
					<dim>4</dim>
				</port>
			</input>
			<output>
				<port id="2" precision="FP32" names="1185">
					<dim>1</dim>
					<dim>64</dim>
					<dim>1</dim>
					<dim>1</dim>
				</port>
			</output>
		</layer>
		<layer id="88" name="Constant_584" type="Const" version="opset1">
			<data element_type="f32" shape="1, 1, 1, 1" offset="262688" size="4"/>
			<output>
				<port id="0" precision="FP32" names="1186">
					<dim>1</dim>
					<dim>1</dim>
					<dim>1</dim>
					<dim>1</dim>
				</port>
			</output>
		</layer>
		<layer id="89" name="Mul_585" type="Multiply" version="opset1">
			<data auto_broadcast="numpy"/>
			<input>
				<port id="0" precision="FP32">
					<dim>1</dim>
					<dim>64</dim>
					<dim>1</dim>
					<dim>1</dim>
				</port>
				<port id="1" precision="FP32">
					<dim>1</dim>
					<dim>1</dim>
					<dim>1</dim>
					<dim>1</dim>
				</port>
			</input>
			<output>
				<port id="2" precision="FP32" names="1187">
					<dim>1</dim>
					<dim>64</dim>
					<dim>1</dim>
					<dim>1</dim>
				</port>
			</output>
		</layer>
		<layer id="90" name="m.layers.5.up.modulation.weight" type="Const" version="opset1">
			<data element_type="f32" shape="256, 512" offset="985004" size="524288"/>
			<output>
				<port id="0" precision="FP32" names="m.layers.5.up.modulation.weight">
					<dim>256</dim>
					<dim>512</dim>
				</port>
			</output>
		</layer>
		<layer id="91" name="Gemm_552/WithoutBiases" type="MatMul" version="opset1">
			<data transpose_a="false" transpose_b="true"/>
			<input>
				<port id="0" precision="FP32">
					<dim>1</dim>
					<dim>512</dim>
				</port>
				<port id="1" precision="FP32">
					<dim>256</dim>
					<dim>512</dim>
				</port>
			</input>
			<output>
				<port id="2" precision="FP32">
					<dim>1</dim>
					<dim>256</dim>
				</port>
			</output>
		</layer>
		<layer id="92" name="m.layers.5.up.modulation.bias" type="Const" version="opset1">
			<data element_type="f32" shape="1, 256" offset="1509292" size="1024"/>
			<output>
				<port id="0" precision="FP32" names="m.layers.5.up.modulation.bias">
					<dim>1</dim>
					<dim>256</dim>
				</port>
			</output>
		</layer>
		<layer id="93" name="Gemm_552" type="Add" version="opset1">
			<data auto_broadcast="numpy"/>
			<input>
				<port id="0" precision="FP32">
					<dim>1</dim>
					<dim>256</dim>
				</port>
				<port id="1" precision="FP32">
					<dim>1</dim>
					<dim>256</dim>
				</port>
			</input>
			<output>
				<port id="2" precision="FP32" names="1118">
					<dim>1</dim>
					<dim>256</dim>
				</port>
			</output>
		</layer>
		<layer id="94" name="m.layers.4.conv2.conv.modulation.weight" type="Const" version="opset1">
			<data element_type="f32" shape="256, 512" offset="1510316" size="524288"/>
			<output>
				<port id="0" precision="FP32" names="m.layers.4.conv2.conv.modulation.weight">
					<dim>256</dim>
					<dim>512</dim>
				</port>
			</output>
		</layer>
		<layer id="95" name="Gemm_510/WithoutBiases" type="MatMul" version="opset1">
			<data transpose_a="false" transpose_b="true"/>
			<input>
				<port id="0" precision="FP32">
					<dim>1</dim>
					<dim>512</dim>
				</port>
				<port id="1" precision="FP32">
					<dim>256</dim>
					<dim>512</dim>
				</port>
			</input>
			<output>
				<port id="2" precision="FP32">
					<dim>1</dim>
					<dim>256</dim>
				</port>
			</output>
		</layer>
		<layer id="96" name="m.layers.4.conv2.conv.modulation.bias" type="Const" version="opset1">
			<data element_type="f32" shape="1, 256" offset="2034604" size="1024"/>
			<output>
				<port id="0" precision="FP32" names="m.layers.4.conv2.conv.modulation.bias">
					<dim>1</dim>
					<dim>256</dim>
				</port>
			</output>
		</layer>
		<layer id="97" name="Gemm_510" type="Add" version="opset1">
			<data auto_broadcast="numpy"/>
			<input>
				<port id="0" precision="FP32">
					<dim>1</dim>
					<dim>256</dim>
				</port>
				<port id="1" precision="FP32">
					<dim>1</dim>
					<dim>256</dim>
				</port>
			</input>
			<output>
				<port id="2" precision="FP32" names="1057">
					<dim>1</dim>
					<dim>256</dim>
				</port>
			</output>
		</layer>
		<layer id="98" name="Shape_511" type="ShapeOf" version="opset3">
			<data output_type="i64"/>
			<input>
				<port id="0" precision="FP32">
					<dim>1</dim>
					<dim>512</dim>
				</port>
			</input>
			<output>
				<port id="1" precision="I64" names="1058">
					<dim>2</dim>
				</port>
			</output>
		</layer>
		<layer id="99" name="Constant_512" type="Const" version="opset1">
			<data element_type="i32" shape="" offset="131328" size="4"/>
			<output>
				<port id="0" precision="I32" names="1059"/>
			</output>
		</layer>
		<layer id="100" name="Gather_513/axis" type="Const" version="opset1">
			<data element_type="i64" shape="" offset="131332" size="8"/>
			<output>
				<port id="0" precision="I64"/>
			</output>
		</layer>
		<layer id="101" name="Gather_5131540" type="Gather" version="opset7">
			<data batch_dims="0"/>
			<input>
				<port id="0" precision="I64">
					<dim>2</dim>
				</port>
				<port id="1" precision="I32"/>
				<port id="2" precision="I64"/>
			</input>
			<output>
				<port id="3" precision="I64" names="1060"/>
			</output>
		</layer>
		<layer id="102" name="Unsqueeze_514/Dims" type="Const" version="opset1">
			<data element_type="i64" shape="1" offset="131332" size="8"/>
			<output>
				<port id="0" precision="I64">
					<dim>1</dim>
				</port>
			</output>
		</layer>
		<layer id="103" name="Unsqueeze_514/Unsqueeze" type="Unsqueeze" version="opset1">
			<input>
				<port id="0" precision="I64"/>
				<port id="1" precision="I64">
					<dim>1</dim>
				</port>
			</input>
			<output>
				<port id="2" precision="I64" names="1064">
					<dim>1</dim>
				</port>
			</output>
		</layer>
		<layer id="104" name="1725" type="Const" version="opset1">
			<data element_type="i64" shape="1" offset="131340" size="8"/>
			<output>
				<port id="0" precision="I64" names="1725">
					<dim>1</dim>
				</port>
			</output>
		</layer>
		<layer id="105" name="1726" type="Const" version="opset1">
			<data element_type="i64" shape="1" offset="131348" size="8"/>
			<output>
				<port id="0" precision="I64" names="1726">
					<dim>1</dim>
				</port>
			</output>
		</layer>
		<layer id="106" name="1727" type="Const" version="opset1">
			<data element_type="i64" shape="1" offset="131348" size="8"/>
			<output>
				<port id="0" precision="I64" names="1727">
					<dim>1</dim>
				</port>
			</output>
		</layer>
		<layer id="107" name="Concat_515" type="Concat" version="opset1">
			<data axis="0"/>
			<input>
				<port id="0" precision="I64">
					<dim>1</dim>
				</port>
				<port id="1" precision="I64">
					<dim>1</dim>
				</port>
				<port id="2" precision="I64">
					<dim>1</dim>
				</port>
				<port id="3" precision="I64">
					<dim>1</dim>
				</port>
			</input>
			<output>
				<port id="4" precision="I64" names="1068">
					<dim>4</dim>
				</port>
			</output>
		</layer>
		<layer id="108" name="Reshape_516" type="Reshape" version="opset1">
			<data special_zero="true"/>
			<input>
				<port id="0" precision="FP32">
					<dim>1</dim>
					<dim>256</dim>
				</port>
				<port id="1" precision="I64">
					<dim>4</dim>
				</port>
			</input>
			<output>
				<port id="2" precision="FP32" names="1069">
					<dim>1</dim>
					<dim>256</dim>
					<dim>1</dim>
					<dim>1</dim>
				</port>
			</output>
		</layer>
		<layer id="109" name="Constant_517" type="Const" version="opset1">
			<data element_type="f32" shape="1, 1, 1, 1" offset="2035628" size="4"/>
			<output>
				<port id="0" precision="FP32" names="1070">
					<dim>1</dim>
					<dim>1</dim>
					<dim>1</dim>
					<dim>1</dim>
				</port>
			</output>
		</layer>
		<layer id="110" name="Mul_518" type="Multiply" version="opset1">
			<data auto_broadcast="numpy"/>
			<input>
				<port id="0" precision="FP32">
					<dim>1</dim>
					<dim>256</dim>
					<dim>1</dim>
					<dim>1</dim>
				</port>
				<port id="1" precision="FP32">
					<dim>1</dim>
					<dim>1</dim>
					<dim>1</dim>
					<dim>1</dim>
				</port>
			</input>
			<output>
				<port id="2" precision="FP32" names="1071">
					<dim>1</dim>
					<dim>256</dim>
					<dim>1</dim>
					<dim>1</dim>
				</port>
			</output>
		</layer>
		<layer id="111" name="m.layers.4.conv1.conv.modulation.weight" type="Const" version="opset1">
			<data element_type="f32" shape="128, 512" offset="2035632" size="262144"/>
			<output>
				<port id="0" precision="FP32" names="m.layers.4.conv1.conv.modulation.weight">
					<dim>128</dim>
					<dim>512</dim>
				</port>
			</output>
		</layer>
		<layer id="112" name="Gemm_477/WithoutBiases" type="MatMul" version="opset1">
			<data transpose_a="false" transpose_b="true"/>
			<input>
				<port id="0" precision="FP32">
					<dim>1</dim>
					<dim>512</dim>
				</port>
				<port id="1" precision="FP32">
					<dim>128</dim>
					<dim>512</dim>
				</port>
			</input>
			<output>
				<port id="2" precision="FP32">
					<dim>1</dim>
					<dim>128</dim>
				</port>
			</output>
		</layer>
		<layer id="113" name="m.layers.4.conv1.conv.modulation.bias" type="Const" version="opset1">
			<data element_type="f32" shape="1, 128" offset="2297776" size="512"/>
			<output>
				<port id="0" precision="FP32" names="m.layers.4.conv1.conv.modulation.bias">
					<dim>1</dim>
					<dim>128</dim>
				</port>
			</output>
		</layer>
		<layer id="114" name="Gemm_477" type="Add" version="opset1">
			<data auto_broadcast="numpy"/>
			<input>
				<port id="0" precision="FP32">
					<dim>1</dim>
					<dim>128</dim>
				</port>
				<port id="1" precision="FP32">
					<dim>1</dim>
					<dim>128</dim>
				</port>
			</input>
			<output>
				<port id="2" precision="FP32" names="1005">
					<dim>1</dim>
					<dim>128</dim>
				</port>
			</output>
		</layer>
		<layer id="115" name="Shape_478" type="ShapeOf" version="opset3">
			<data output_type="i64"/>
			<input>
				<port id="0" precision="FP32">
					<dim>1</dim>
					<dim>512</dim>
				</port>
			</input>
			<output>
				<port id="1" precision="I64" names="1006">
					<dim>2</dim>
				</port>
			</output>
		</layer>
		<layer id="116" name="Constant_479" type="Const" version="opset1">
			<data element_type="i32" shape="" offset="131328" size="4"/>
			<output>
				<port id="0" precision="I32" names="1007"/>
			</output>
		</layer>
		<layer id="117" name="Gather_480/axis" type="Const" version="opset1">
			<data element_type="i64" shape="" offset="131332" size="8"/>
			<output>
				<port id="0" precision="I64"/>
			</output>
		</layer>
		<layer id="118" name="Gather_4801550" type="Gather" version="opset7">
			<data batch_dims="0"/>
			<input>
				<port id="0" precision="I64">
					<dim>2</dim>
				</port>
				<port id="1" precision="I32"/>
				<port id="2" precision="I64"/>
			</input>
			<output>
				<port id="3" precision="I64" names="1008"/>
			</output>
		</layer>
		<layer id="119" name="Unsqueeze_481/Dims" type="Const" version="opset1">
			<data element_type="i64" shape="1" offset="131332" size="8"/>
			<output>
				<port id="0" precision="I64">
					<dim>1</dim>
				</port>
			</output>
		</layer>
		<layer id="120" name="Unsqueeze_481/Unsqueeze" type="Unsqueeze" version="opset1">
			<input>
				<port id="0" precision="I64"/>
				<port id="1" precision="I64">
					<dim>1</dim>
				</port>
			</input>
			<output>
				<port id="2" precision="I64" names="1012">
					<dim>1</dim>
				</port>
			</output>
		</layer>
		<layer id="121" name="1713" type="Const" version="opset1">
			<data element_type="i64" shape="1" offset="131340" size="8"/>
			<output>
				<port id="0" precision="I64" names="1713">
					<dim>1</dim>
				</port>
			</output>
		</layer>
		<layer id="122" name="1714" type="Const" version="opset1">
			<data element_type="i64" shape="1" offset="131348" size="8"/>
			<output>
				<port id="0" precision="I64" names="1714">
					<dim>1</dim>
				</port>
			</output>
		</layer>
		<layer id="123" name="1715" type="Const" version="opset1">
			<data element_type="i64" shape="1" offset="131348" size="8"/>
			<output>
				<port id="0" precision="I64" names="1715">
					<dim>1</dim>
				</port>
			</output>
		</layer>
		<layer id="124" name="Concat_482" type="Concat" version="opset1">
			<data axis="0"/>
			<input>
				<port id="0" precision="I64">
					<dim>1</dim>
				</port>
				<port id="1" precision="I64">
					<dim>1</dim>
				</port>
				<port id="2" precision="I64">
					<dim>1</dim>
				</port>
				<port id="3" precision="I64">
					<dim>1</dim>
				</port>
			</input>
			<output>
				<port id="4" precision="I64" names="1016">
					<dim>4</dim>
				</port>
			</output>
		</layer>
		<layer id="125" name="Reshape_483" type="Reshape" version="opset1">
			<data special_zero="true"/>
			<input>
				<port id="0" precision="FP32">
					<dim>1</dim>
					<dim>128</dim>
				</port>
				<port id="1" precision="I64">
					<dim>4</dim>
				</port>
			</input>
			<output>
				<port id="2" precision="FP32" names="1017">
					<dim>1</dim>
					<dim>128</dim>
					<dim>1</dim>
					<dim>1</dim>
				</port>
			</output>
		</layer>
		<layer id="126" name="Constant_484" type="Const" version="opset1">
			<data element_type="f32" shape="1, 1, 1, 1" offset="853672" size="4"/>
			<output>
				<port id="0" precision="FP32" names="1018">
					<dim>1</dim>
					<dim>1</dim>
					<dim>1</dim>
					<dim>1</dim>
				</port>
			</output>
		</layer>
		<layer id="127" name="Mul_485" type="Multiply" version="opset1">
			<data auto_broadcast="numpy"/>
			<input>
				<port id="0" precision="FP32">
					<dim>1</dim>
					<dim>128</dim>
					<dim>1</dim>
					<dim>1</dim>
				</port>
				<port id="1" precision="FP32">
					<dim>1</dim>
					<dim>1</dim>
					<dim>1</dim>
					<dim>1</dim>
				</port>
			</input>
			<output>
				<port id="2" precision="FP32" names="1019">
					<dim>1</dim>
					<dim>128</dim>
					<dim>1</dim>
					<dim>1</dim>
				</port>
			</output>
		</layer>
		<layer id="128" name="m.layers.4.up.modulation.weight" type="Const" version="opset1">
			<data element_type="f32" shape="512, 512" offset="2298288" size="1048576"/>
			<output>
				<port id="0" precision="FP32" names="m.layers.4.up.modulation.weight">
					<dim>512</dim>
					<dim>512</dim>
				</port>
			</output>
		</layer>
		<layer id="129" name="Gemm_452/WithoutBiases" type="MatMul" version="opset1">
			<data transpose_a="false" transpose_b="true"/>
			<input>
				<port id="0" precision="FP32">
					<dim>1</dim>
					<dim>512</dim>
				</port>
				<port id="1" precision="FP32">
					<dim>512</dim>
					<dim>512</dim>
				</port>
			</input>
			<output>
				<port id="2" precision="FP32">
					<dim>1</dim>
					<dim>512</dim>
				</port>
			</output>
		</layer>
		<layer id="130" name="m.layers.4.up.modulation.bias" type="Const" version="opset1">
			<data element_type="f32" shape="1, 512" offset="3346864" size="2048"/>
			<output>
				<port id="0" precision="FP32" names="m.layers.4.up.modulation.bias">
					<dim>1</dim>
					<dim>512</dim>
				</port>
			</output>
		</layer>
		<layer id="131" name="Gemm_452" type="Add" version="opset1">
			<data auto_broadcast="numpy"/>
			<input>
				<port id="0" precision="FP32">
					<dim>1</dim>
					<dim>512</dim>
				</port>
				<port id="1" precision="FP32">
					<dim>1</dim>
					<dim>512</dim>
				</port>
			</input>
			<output>
				<port id="2" precision="FP32" names="950">
					<dim>1</dim>
					<dim>512</dim>
				</port>
			</output>
		</layer>
		<layer id="132" name="m.layers.3.conv2.conv.modulation.weight" type="Const" version="opset1">
			<data element_type="f32" shape="512, 512" offset="3348912" size="1048576"/>
			<output>
				<port id="0" precision="FP32" names="m.layers.3.conv2.conv.modulation.weight">
					<dim>512</dim>
					<dim>512</dim>
				</port>
			</output>
		</layer>
		<layer id="133" name="Gemm_410/WithoutBiases" type="MatMul" version="opset1">
			<data transpose_a="false" transpose_b="true"/>
			<input>
				<port id="0" precision="FP32">
					<dim>1</dim>
					<dim>512</dim>
				</port>
				<port id="1" precision="FP32">
					<dim>512</dim>
					<dim>512</dim>
				</port>
			</input>
			<output>
				<port id="2" precision="FP32">
					<dim>1</dim>
					<dim>512</dim>
				</port>
			</output>
		</layer>
		<layer id="134" name="m.layers.3.conv2.conv.modulation.bias" type="Const" version="opset1">
			<data element_type="f32" shape="1, 512" offset="4397488" size="2048"/>
			<output>
				<port id="0" precision="FP32" names="m.layers.3.conv2.conv.modulation.bias">
					<dim>1</dim>
					<dim>512</dim>
				</port>
			</output>
		</layer>
		<layer id="135" name="Gemm_410" type="Add" version="opset1">
			<data auto_broadcast="numpy"/>
			<input>
				<port id="0" precision="FP32">
					<dim>1</dim>
					<dim>512</dim>
				</port>
				<port id="1" precision="FP32">
					<dim>1</dim>
					<dim>512</dim>
				</port>
			</input>
			<output>
				<port id="2" precision="FP32" names="889">
					<dim>1</dim>
					<dim>512</dim>
				</port>
			</output>
		</layer>
		<layer id="136" name="Shape_411" type="ShapeOf" version="opset3">
			<data output_type="i64"/>
			<input>
				<port id="0" precision="FP32">
					<dim>1</dim>
					<dim>512</dim>
				</port>
			</input>
			<output>
				<port id="1" precision="I64" names="890">
					<dim>2</dim>
				</port>
			</output>
		</layer>
		<layer id="137" name="Constant_412" type="Const" version="opset1">
			<data element_type="i32" shape="" offset="131328" size="4"/>
			<output>
				<port id="0" precision="I32" names="891"/>
			</output>
		</layer>
		<layer id="138" name="Gather_413/axis" type="Const" version="opset1">
			<data element_type="i64" shape="" offset="131332" size="8"/>
			<output>
				<port id="0" precision="I64"/>
			</output>
		</layer>
		<layer id="139" name="Gather_4131522" type="Gather" version="opset7">
			<data batch_dims="0"/>
			<input>
				<port id="0" precision="I64">
					<dim>2</dim>
				</port>
				<port id="1" precision="I32"/>
				<port id="2" precision="I64"/>
			</input>
			<output>
				<port id="3" precision="I64" names="892"/>
			</output>
		</layer>
		<layer id="140" name="Unsqueeze_414/Dims" type="Const" version="opset1">
			<data element_type="i64" shape="1" offset="131332" size="8"/>
			<output>
				<port id="0" precision="I64">
					<dim>1</dim>
				</port>
			</output>
		</layer>
		<layer id="141" name="Unsqueeze_414/Unsqueeze" type="Unsqueeze" version="opset1">
			<input>
				<port id="0" precision="I64"/>
				<port id="1" precision="I64">
					<dim>1</dim>
				</port>
			</input>
			<output>
				<port id="2" precision="I64" names="896">
					<dim>1</dim>
				</port>
			</output>
		</layer>
		<layer id="142" name="1684" type="Const" version="opset1">
			<data element_type="i64" shape="1" offset="131340" size="8"/>
			<output>
				<port id="0" precision="I64" names="1684">
					<dim>1</dim>
				</port>
			</output>
		</layer>
		<layer id="143" name="1685" type="Const" version="opset1">
			<data element_type="i64" shape="1" offset="131348" size="8"/>
			<output>
				<port id="0" precision="I64" names="1685">
					<dim>1</dim>
				</port>
			</output>
		</layer>
		<layer id="144" name="1686" type="Const" version="opset1">
			<data element_type="i64" shape="1" offset="131348" size="8"/>
			<output>
				<port id="0" precision="I64" names="1686">
					<dim>1</dim>
				</port>
			</output>
		</layer>
		<layer id="145" name="Concat_415" type="Concat" version="opset1">
			<data axis="0"/>
			<input>
				<port id="0" precision="I64">
					<dim>1</dim>
				</port>
				<port id="1" precision="I64">
					<dim>1</dim>
				</port>
				<port id="2" precision="I64">
					<dim>1</dim>
				</port>
				<port id="3" precision="I64">
					<dim>1</dim>
				</port>
			</input>
			<output>
				<port id="4" precision="I64" names="900">
					<dim>4</dim>
				</port>
			</output>
		</layer>
		<layer id="146" name="Reshape_416" type="Reshape" version="opset1">
			<data special_zero="true"/>
			<input>
				<port id="0" precision="FP32">
					<dim>1</dim>
					<dim>512</dim>
				</port>
				<port id="1" precision="I64">
					<dim>4</dim>
				</port>
			</input>
			<output>
				<port id="2" precision="FP32" names="901">
					<dim>1</dim>
					<dim>512</dim>
					<dim>1</dim>
					<dim>1</dim>
				</port>
			</output>
		</layer>
		<layer id="147" name="Constant_417" type="Const" version="opset1">
			<data element_type="f32" shape="1, 1, 1, 1" offset="4399536" size="4"/>
			<output>
				<port id="0" precision="FP32" names="902">
					<dim>1</dim>
					<dim>1</dim>
					<dim>1</dim>
					<dim>1</dim>
				</port>
			</output>
		</layer>
		<layer id="148" name="Mul_418" type="Multiply" version="opset1">
			<data auto_broadcast="numpy"/>
			<input>
				<port id="0" precision="FP32">
					<dim>1</dim>
					<dim>512</dim>
					<dim>1</dim>
					<dim>1</dim>
				</port>
				<port id="1" precision="FP32">
					<dim>1</dim>
					<dim>1</dim>
					<dim>1</dim>
					<dim>1</dim>
				</port>
			</input>
			<output>
				<port id="2" precision="FP32" names="903">
					<dim>1</dim>
					<dim>512</dim>
					<dim>1</dim>
					<dim>1</dim>
				</port>
			</output>
		</layer>
		<layer id="149" name="m.layers.3.conv1.conv.modulation.weight" type="Const" version="opset1">
			<data element_type="f32" shape="128, 512" offset="4399540" size="262144"/>
			<output>
				<port id="0" precision="FP32" names="m.layers.3.conv1.conv.modulation.weight">
					<dim>128</dim>
					<dim>512</dim>
				</port>
			</output>
		</layer>
		<layer id="150" name="Gemm_377/WithoutBiases" type="MatMul" version="opset1">
			<data transpose_a="false" transpose_b="true"/>
			<input>
				<port id="0" precision="FP32">
					<dim>1</dim>
					<dim>512</dim>
				</port>
				<port id="1" precision="FP32">
					<dim>128</dim>
					<dim>512</dim>
				</port>
			</input>
			<output>
				<port id="2" precision="FP32">
					<dim>1</dim>
					<dim>128</dim>
				</port>
			</output>
		</layer>
		<layer id="151" name="m.layers.3.conv1.conv.modulation.bias" type="Const" version="opset1">
			<data element_type="f32" shape="1, 128" offset="4661684" size="512"/>
			<output>
				<port id="0" precision="FP32" names="m.layers.3.conv1.conv.modulation.bias">
					<dim>1</dim>
					<dim>128</dim>
				</port>
			</output>
		</layer>
		<layer id="152" name="Gemm_377" type="Add" version="opset1">
			<data auto_broadcast="numpy"/>
			<input>
				<port id="0" precision="FP32">
					<dim>1</dim>
					<dim>128</dim>
				</port>
				<port id="1" precision="FP32">
					<dim>1</dim>
					<dim>128</dim>
				</port>
			</input>
			<output>
				<port id="2" precision="FP32" names="837">
					<dim>1</dim>
					<dim>128</dim>
				</port>
			</output>
		</layer>
		<layer id="153" name="Shape_378" type="ShapeOf" version="opset3">
			<data output_type="i64"/>
			<input>
				<port id="0" precision="FP32">
					<dim>1</dim>
					<dim>512</dim>
				</port>
			</input>
			<output>
				<port id="1" precision="I64" names="838">
					<dim>2</dim>
				</port>
			</output>
		</layer>
		<layer id="154" name="Constant_379" type="Const" version="opset1">
			<data element_type="i32" shape="" offset="131328" size="4"/>
			<output>
				<port id="0" precision="I32" names="839"/>
			</output>
		</layer>
		<layer id="155" name="Gather_380/axis" type="Const" version="opset1">
			<data element_type="i64" shape="" offset="131332" size="8"/>
			<output>
				<port id="0" precision="I64"/>
			</output>
		</layer>
		<layer id="156" name="Gather_3801552" type="Gather" version="opset7">
			<data batch_dims="0"/>
			<input>
				<port id="0" precision="I64">
					<dim>2</dim>
				</port>
				<port id="1" precision="I32"/>
				<port id="2" precision="I64"/>
			</input>
			<output>
				<port id="3" precision="I64" names="840"/>
			</output>
		</layer>
		<layer id="157" name="Unsqueeze_381/Dims" type="Const" version="opset1">
			<data element_type="i64" shape="1" offset="131332" size="8"/>
			<output>
				<port id="0" precision="I64">
					<dim>1</dim>
				</port>
			</output>
		</layer>
		<layer id="158" name="Unsqueeze_381/Unsqueeze" type="Unsqueeze" version="opset1">
			<input>
				<port id="0" precision="I64"/>
				<port id="1" precision="I64">
					<dim>1</dim>
				</port>
			</input>
			<output>
				<port id="2" precision="I64" names="844">
					<dim>1</dim>
				</port>
			</output>
		</layer>
		<layer id="159" name="1672" type="Const" version="opset1">
			<data element_type="i64" shape="1" offset="131340" size="8"/>
			<output>
				<port id="0" precision="I64" names="1672">
					<dim>1</dim>
				</port>
			</output>
		</layer>
		<layer id="160" name="1673" type="Const" version="opset1">
			<data element_type="i64" shape="1" offset="131348" size="8"/>
			<output>
				<port id="0" precision="I64" names="1673">
					<dim>1</dim>
				</port>
			</output>
		</layer>
		<layer id="161" name="1674" type="Const" version="opset1">
			<data element_type="i64" shape="1" offset="131348" size="8"/>
			<output>
				<port id="0" precision="I64" names="1674">
					<dim>1</dim>
				</port>
			</output>
		</layer>
		<layer id="162" name="Concat_382" type="Concat" version="opset1">
			<data axis="0"/>
			<input>
				<port id="0" precision="I64">
					<dim>1</dim>
				</port>
				<port id="1" precision="I64">
					<dim>1</dim>
				</port>
				<port id="2" precision="I64">
					<dim>1</dim>
				</port>
				<port id="3" precision="I64">
					<dim>1</dim>
				</port>
			</input>
			<output>
				<port id="4" precision="I64" names="848">
					<dim>4</dim>
				</port>
			</output>
		</layer>
		<layer id="163" name="Reshape_383" type="Reshape" version="opset1">
			<data special_zero="true"/>
			<input>
				<port id="0" precision="FP32">
					<dim>1</dim>
					<dim>128</dim>
				</port>
				<port id="1" precision="I64">
					<dim>4</dim>
				</port>
			</input>
			<output>
				<port id="2" precision="FP32" names="849">
					<dim>1</dim>
					<dim>128</dim>
					<dim>1</dim>
					<dim>1</dim>
				</port>
			</output>
		</layer>
		<layer id="164" name="Constant_384" type="Const" version="opset1">
			<data element_type="f32" shape="1, 1, 1, 1" offset="853672" size="4"/>
			<output>
				<port id="0" precision="FP32" names="850">
					<dim>1</dim>
					<dim>1</dim>
					<dim>1</dim>
					<dim>1</dim>
				</port>
			</output>
		</layer>
		<layer id="165" name="Mul_385" type="Multiply" version="opset1">
			<data auto_broadcast="numpy"/>
			<input>
				<port id="0" precision="FP32">
					<dim>1</dim>
					<dim>128</dim>
					<dim>1</dim>
					<dim>1</dim>
				</port>
				<port id="1" precision="FP32">
					<dim>1</dim>
					<dim>1</dim>
					<dim>1</dim>
					<dim>1</dim>
				</port>
			</input>
			<output>
				<port id="2" precision="FP32" names="851">
					<dim>1</dim>
					<dim>128</dim>
					<dim>1</dim>
					<dim>1</dim>
				</port>
			</output>
		</layer>
		<layer id="166" name="m.layers.3.up.modulation.weight" type="Const" version="opset1">
			<data element_type="f32" shape="512, 512" offset="4662196" size="1048576"/>
			<output>
				<port id="0" precision="FP32" names="m.layers.3.up.modulation.weight">
					<dim>512</dim>
					<dim>512</dim>
				</port>
			</output>
		</layer>
		<layer id="167" name="Gemm_352/WithoutBiases" type="MatMul" version="opset1">
			<data transpose_a="false" transpose_b="true"/>
			<input>
				<port id="0" precision="FP32">
					<dim>1</dim>
					<dim>512</dim>
				</port>
				<port id="1" precision="FP32">
					<dim>512</dim>
					<dim>512</dim>
				</port>
			</input>
			<output>
				<port id="2" precision="FP32">
					<dim>1</dim>
					<dim>512</dim>
				</port>
			</output>
		</layer>
		<layer id="168" name="m.layers.3.up.modulation.bias" type="Const" version="opset1">
			<data element_type="f32" shape="1, 512" offset="5710772" size="2048"/>
			<output>
				<port id="0" precision="FP32" names="m.layers.3.up.modulation.bias">
					<dim>1</dim>
					<dim>512</dim>
				</port>
			</output>
		</layer>
		<layer id="169" name="Gemm_352" type="Add" version="opset1">
			<data auto_broadcast="numpy"/>
			<input>
				<port id="0" precision="FP32">
					<dim>1</dim>
					<dim>512</dim>
				</port>
				<port id="1" precision="FP32">
					<dim>1</dim>
					<dim>512</dim>
				</port>
			</input>
			<output>
				<port id="2" precision="FP32" names="782">
					<dim>1</dim>
					<dim>512</dim>
				</port>
			</output>
		</layer>
		<layer id="170" name="m.layers.2.conv2.conv.modulation.weight" type="Const" version="opset1">
			<data element_type="f32" shape="512, 512" offset="5712820" size="1048576"/>
			<output>
				<port id="0" precision="FP32" names="m.layers.2.conv2.conv.modulation.weight">
					<dim>512</dim>
					<dim>512</dim>
				</port>
			</output>
		</layer>
		<layer id="171" name="Gemm_310/WithoutBiases" type="MatMul" version="opset1">
			<data transpose_a="false" transpose_b="true"/>
			<input>
				<port id="0" precision="FP32">
					<dim>1</dim>
					<dim>512</dim>
				</port>
				<port id="1" precision="FP32">
					<dim>512</dim>
					<dim>512</dim>
				</port>
			</input>
			<output>
				<port id="2" precision="FP32">
					<dim>1</dim>
					<dim>512</dim>
				</port>
			</output>
		</layer>
		<layer id="172" name="m.layers.2.conv2.conv.modulation.bias" type="Const" version="opset1">
			<data element_type="f32" shape="1, 512" offset="6761396" size="2048"/>
			<output>
				<port id="0" precision="FP32" names="m.layers.2.conv2.conv.modulation.bias">
					<dim>1</dim>
					<dim>512</dim>
				</port>
			</output>
		</layer>
		<layer id="173" name="Gemm_310" type="Add" version="opset1">
			<data auto_broadcast="numpy"/>
			<input>
				<port id="0" precision="FP32">
					<dim>1</dim>
					<dim>512</dim>
				</port>
				<port id="1" precision="FP32">
					<dim>1</dim>
					<dim>512</dim>
				</port>
			</input>
			<output>
				<port id="2" precision="FP32" names="721">
					<dim>1</dim>
					<dim>512</dim>
				</port>
			</output>
		</layer>
		<layer id="174" name="Shape_311" type="ShapeOf" version="opset3">
			<data output_type="i64"/>
			<input>
				<port id="0" precision="FP32">
					<dim>1</dim>
					<dim>512</dim>
				</port>
			</input>
			<output>
				<port id="1" precision="I64" names="722">
					<dim>2</dim>
				</port>
			</output>
		</layer>
		<layer id="175" name="Constant_312" type="Const" version="opset1">
			<data element_type="i32" shape="" offset="131328" size="4"/>
			<output>
				<port id="0" precision="I32" names="723"/>
			</output>
		</layer>
		<layer id="176" name="Gather_313/axis" type="Const" version="opset1">
			<data element_type="i64" shape="" offset="131332" size="8"/>
			<output>
				<port id="0" precision="I64"/>
			</output>
		</layer>
		<layer id="177" name="Gather_3131474" type="Gather" version="opset7">
			<data batch_dims="0"/>
			<input>
				<port id="0" precision="I64">
					<dim>2</dim>
				</port>
				<port id="1" precision="I32"/>
				<port id="2" precision="I64"/>
			</input>
			<output>
				<port id="3" precision="I64" names="724"/>
			</output>
		</layer>
		<layer id="178" name="Unsqueeze_314/Dims" type="Const" version="opset1">
			<data element_type="i64" shape="1" offset="131332" size="8"/>
			<output>
				<port id="0" precision="I64">
					<dim>1</dim>
				</port>
			</output>
		</layer>
		<layer id="179" name="Unsqueeze_314/Unsqueeze" type="Unsqueeze" version="opset1">
			<input>
				<port id="0" precision="I64"/>
				<port id="1" precision="I64">
					<dim>1</dim>
				</port>
			</input>
			<output>
				<port id="2" precision="I64" names="728">
					<dim>1</dim>
				</port>
			</output>
		</layer>
		<layer id="180" name="1643" type="Const" version="opset1">
			<data element_type="i64" shape="1" offset="131340" size="8"/>
			<output>
				<port id="0" precision="I64" names="1643">
					<dim>1</dim>
				</port>
			</output>
		</layer>
		<layer id="181" name="1644" type="Const" version="opset1">
			<data element_type="i64" shape="1" offset="131348" size="8"/>
			<output>
				<port id="0" precision="I64" names="1644">
					<dim>1</dim>
				</port>
			</output>
		</layer>
		<layer id="182" name="1645" type="Const" version="opset1">
			<data element_type="i64" shape="1" offset="131348" size="8"/>
			<output>
				<port id="0" precision="I64" names="1645">
					<dim>1</dim>
				</port>
			</output>
		</layer>
		<layer id="183" name="Concat_315" type="Concat" version="opset1">
			<data axis="0"/>
			<input>
				<port id="0" precision="I64">
					<dim>1</dim>
				</port>
				<port id="1" precision="I64">
					<dim>1</dim>
				</port>
				<port id="2" precision="I64">
					<dim>1</dim>
				</port>
				<port id="3" precision="I64">
					<dim>1</dim>
				</port>
			</input>
			<output>
				<port id="4" precision="I64" names="732">
					<dim>4</dim>
				</port>
			</output>
		</layer>
		<layer id="184" name="Reshape_316" type="Reshape" version="opset1">
			<data special_zero="true"/>
			<input>
				<port id="0" precision="FP32">
					<dim>1</dim>
					<dim>512</dim>
				</port>
				<port id="1" precision="I64">
					<dim>4</dim>
				</port>
			</input>
			<output>
				<port id="2" precision="FP32" names="733">
					<dim>1</dim>
					<dim>512</dim>
					<dim>1</dim>
					<dim>1</dim>
				</port>
			</output>
		</layer>
		<layer id="185" name="Constant_317" type="Const" version="opset1">
			<data element_type="f32" shape="1, 1, 1, 1" offset="4399536" size="4"/>
			<output>
				<port id="0" precision="FP32" names="734">
					<dim>1</dim>
					<dim>1</dim>
					<dim>1</dim>
					<dim>1</dim>
				</port>
			</output>
		</layer>
		<layer id="186" name="Mul_318" type="Multiply" version="opset1">
			<data auto_broadcast="numpy"/>
			<input>
				<port id="0" precision="FP32">
					<dim>1</dim>
					<dim>512</dim>
					<dim>1</dim>
					<dim>1</dim>
				</port>
				<port id="1" precision="FP32">
					<dim>1</dim>
					<dim>1</dim>
					<dim>1</dim>
					<dim>1</dim>
				</port>
			</input>
			<output>
				<port id="2" precision="FP32" names="735">
					<dim>1</dim>
					<dim>512</dim>
					<dim>1</dim>
					<dim>1</dim>
				</port>
			</output>
		</layer>
		<layer id="187" name="m.layers.2.conv1.conv.modulation.weight" type="Const" version="opset1">
			<data element_type="f32" shape="128, 512" offset="6763444" size="262144"/>
			<output>
				<port id="0" precision="FP32" names="m.layers.2.conv1.conv.modulation.weight">
					<dim>128</dim>
					<dim>512</dim>
				</port>
			</output>
		</layer>
		<layer id="188" name="Gemm_277/WithoutBiases" type="MatMul" version="opset1">
			<data transpose_a="false" transpose_b="true"/>
			<input>
				<port id="0" precision="FP32">
					<dim>1</dim>
					<dim>512</dim>
				</port>
				<port id="1" precision="FP32">
					<dim>128</dim>
					<dim>512</dim>
				</port>
			</input>
			<output>
				<port id="2" precision="FP32">
					<dim>1</dim>
					<dim>128</dim>
				</port>
			</output>
		</layer>
		<layer id="189" name="m.layers.2.conv1.conv.modulation.bias" type="Const" version="opset1">
			<data element_type="f32" shape="1, 128" offset="7025588" size="512"/>
			<output>
				<port id="0" precision="FP32" names="m.layers.2.conv1.conv.modulation.bias">
					<dim>1</dim>
					<dim>128</dim>
				</port>
			</output>
		</layer>
		<layer id="190" name="Gemm_277" type="Add" version="opset1">
			<data auto_broadcast="numpy"/>
			<input>
				<port id="0" precision="FP32">
					<dim>1</dim>
					<dim>128</dim>
				</port>
				<port id="1" precision="FP32">
					<dim>1</dim>
					<dim>128</dim>
				</port>
			</input>
			<output>
				<port id="2" precision="FP32" names="669">
					<dim>1</dim>
					<dim>128</dim>
				</port>
			</output>
		</layer>
		<layer id="191" name="Shape_278" type="ShapeOf" version="opset3">
			<data output_type="i64"/>
			<input>
				<port id="0" precision="FP32">
					<dim>1</dim>
					<dim>512</dim>
				</port>
			</input>
			<output>
				<port id="1" precision="I64" names="670">
					<dim>2</dim>
				</port>
			</output>
		</layer>
		<layer id="192" name="Constant_279" type="Const" version="opset1">
			<data element_type="i32" shape="" offset="131328" size="4"/>
			<output>
				<port id="0" precision="I32" names="671"/>
			</output>
		</layer>
		<layer id="193" name="Gather_280/axis" type="Const" version="opset1">
			<data element_type="i64" shape="" offset="131332" size="8"/>
			<output>
				<port id="0" precision="I64"/>
			</output>
		</layer>
		<layer id="194" name="Gather_2801482" type="Gather" version="opset7">
			<data batch_dims="0"/>
			<input>
				<port id="0" precision="I64">
					<dim>2</dim>
				</port>
				<port id="1" precision="I32"/>
				<port id="2" precision="I64"/>
			</input>
			<output>
				<port id="3" precision="I64" names="672"/>
			</output>
		</layer>
		<layer id="195" name="Unsqueeze_281/Dims" type="Const" version="opset1">
			<data element_type="i64" shape="1" offset="131332" size="8"/>
			<output>
				<port id="0" precision="I64">
					<dim>1</dim>
				</port>
			</output>
		</layer>
		<layer id="196" name="Unsqueeze_281/Unsqueeze" type="Unsqueeze" version="opset1">
			<input>
				<port id="0" precision="I64"/>
				<port id="1" precision="I64">
					<dim>1</dim>
				</port>
			</input>
			<output>
				<port id="2" precision="I64" names="676">
					<dim>1</dim>
				</port>
			</output>
		</layer>
		<layer id="197" name="1631" type="Const" version="opset1">
			<data element_type="i64" shape="1" offset="131340" size="8"/>
			<output>
				<port id="0" precision="I64" names="1631">
					<dim>1</dim>
				</port>
			</output>
		</layer>
		<layer id="198" name="1632" type="Const" version="opset1">
			<data element_type="i64" shape="1" offset="131348" size="8"/>
			<output>
				<port id="0" precision="I64" names="1632">
					<dim>1</dim>
				</port>
			</output>
		</layer>
		<layer id="199" name="1633" type="Const" version="opset1">
			<data element_type="i64" shape="1" offset="131348" size="8"/>
			<output>
				<port id="0" precision="I64" names="1633">
					<dim>1</dim>
				</port>
			</output>
		</layer>
		<layer id="200" name="Concat_282" type="Concat" version="opset1">
			<data axis="0"/>
			<input>
				<port id="0" precision="I64">
					<dim>1</dim>
				</port>
				<port id="1" precision="I64">
					<dim>1</dim>
				</port>
				<port id="2" precision="I64">
					<dim>1</dim>
				</port>
				<port id="3" precision="I64">
					<dim>1</dim>
				</port>
			</input>
			<output>
				<port id="4" precision="I64" names="680">
					<dim>4</dim>
				</port>
			</output>
		</layer>
		<layer id="201" name="Reshape_283" type="Reshape" version="opset1">
			<data special_zero="true"/>
			<input>
				<port id="0" precision="FP32">
					<dim>1</dim>
					<dim>128</dim>
				</port>
				<port id="1" precision="I64">
					<dim>4</dim>
				</port>
			</input>
			<output>
				<port id="2" precision="FP32" names="681">
					<dim>1</dim>
					<dim>128</dim>
					<dim>1</dim>
					<dim>1</dim>
				</port>
			</output>
		</layer>
		<layer id="202" name="Constant_284" type="Const" version="opset1">
			<data element_type="f32" shape="1, 1, 1, 1" offset="853672" size="4"/>
			<output>
				<port id="0" precision="FP32" names="682">
					<dim>1</dim>
					<dim>1</dim>
					<dim>1</dim>
					<dim>1</dim>
				</port>
			</output>
		</layer>
		<layer id="203" name="Mul_285" type="Multiply" version="opset1">
			<data auto_broadcast="numpy"/>
			<input>
				<port id="0" precision="FP32">
					<dim>1</dim>
					<dim>128</dim>
					<dim>1</dim>
					<dim>1</dim>
				</port>
				<port id="1" precision="FP32">
					<dim>1</dim>
					<dim>1</dim>
					<dim>1</dim>
					<dim>1</dim>
				</port>
			</input>
			<output>
				<port id="2" precision="FP32" names="683">
					<dim>1</dim>
					<dim>128</dim>
					<dim>1</dim>
					<dim>1</dim>
				</port>
			</output>
		</layer>
		<layer id="204" name="m.layers.2.up.modulation.weight" type="Const" version="opset1">
			<data element_type="f32" shape="512, 512" offset="7026100" size="1048576"/>
			<output>
				<port id="0" precision="FP32" names="m.layers.2.up.modulation.weight">
					<dim>512</dim>
					<dim>512</dim>
				</port>
			</output>
		</layer>
		<layer id="205" name="Gemm_252/WithoutBiases" type="MatMul" version="opset1">
			<data transpose_a="false" transpose_b="true"/>
			<input>
				<port id="0" precision="FP32">
					<dim>1</dim>
					<dim>512</dim>
				</port>
				<port id="1" precision="FP32">
					<dim>512</dim>
					<dim>512</dim>
				</port>
			</input>
			<output>
				<port id="2" precision="FP32">
					<dim>1</dim>
					<dim>512</dim>
				</port>
			</output>
		</layer>
		<layer id="206" name="m.layers.2.up.modulation.bias" type="Const" version="opset1">
			<data element_type="f32" shape="1, 512" offset="8074676" size="2048"/>
			<output>
				<port id="0" precision="FP32" names="m.layers.2.up.modulation.bias">
					<dim>1</dim>
					<dim>512</dim>
				</port>
			</output>
		</layer>
		<layer id="207" name="Gemm_252" type="Add" version="opset1">
			<data auto_broadcast="numpy"/>
			<input>
				<port id="0" precision="FP32">
					<dim>1</dim>
					<dim>512</dim>
				</port>
				<port id="1" precision="FP32">
					<dim>1</dim>
					<dim>512</dim>
				</port>
			</input>
			<output>
				<port id="2" precision="FP32" names="614">
					<dim>1</dim>
					<dim>512</dim>
				</port>
			</output>
		</layer>
		<layer id="208" name="m.layers.1.conv2.conv.modulation.weight" type="Const" version="opset1">
			<data element_type="f32" shape="512, 512" offset="8076724" size="1048576"/>
			<output>
				<port id="0" precision="FP32" names="m.layers.1.conv2.conv.modulation.weight">
					<dim>512</dim>
					<dim>512</dim>
				</port>
			</output>
		</layer>
		<layer id="209" name="Gemm_210/WithoutBiases" type="MatMul" version="opset1">
			<data transpose_a="false" transpose_b="true"/>
			<input>
				<port id="0" precision="FP32">
					<dim>1</dim>
					<dim>512</dim>
				</port>
				<port id="1" precision="FP32">
					<dim>512</dim>
					<dim>512</dim>
				</port>
			</input>
			<output>
				<port id="2" precision="FP32">
					<dim>1</dim>
					<dim>512</dim>
				</port>
			</output>
		</layer>
		<layer id="210" name="m.layers.1.conv2.conv.modulation.bias" type="Const" version="opset1">
			<data element_type="f32" shape="1, 512" offset="9125300" size="2048"/>
			<output>
				<port id="0" precision="FP32" names="m.layers.1.conv2.conv.modulation.bias">
					<dim>1</dim>
					<dim>512</dim>
				</port>
			</output>
		</layer>
		<layer id="211" name="Gemm_210" type="Add" version="opset1">
			<data auto_broadcast="numpy"/>
			<input>
				<port id="0" precision="FP32">
					<dim>1</dim>
					<dim>512</dim>
				</port>
				<port id="1" precision="FP32">
					<dim>1</dim>
					<dim>512</dim>
				</port>
			</input>
			<output>
				<port id="2" precision="FP32" names="553">
					<dim>1</dim>
					<dim>512</dim>
				</port>
			</output>
		</layer>
		<layer id="212" name="Shape_211" type="ShapeOf" version="opset3">
			<data output_type="i64"/>
			<input>
				<port id="0" precision="FP32">
					<dim>1</dim>
					<dim>512</dim>
				</port>
			</input>
			<output>
				<port id="1" precision="I64" names="554">
					<dim>2</dim>
				</port>
			</output>
		</layer>
		<layer id="213" name="Constant_212" type="Const" version="opset1">
			<data element_type="i32" shape="" offset="131328" size="4"/>
			<output>
				<port id="0" precision="I32" names="555"/>
			</output>
		</layer>
		<layer id="214" name="Gather_213/axis" type="Const" version="opset1">
			<data element_type="i64" shape="" offset="131332" size="8"/>
			<output>
				<port id="0" precision="I64"/>
			</output>
		</layer>
		<layer id="215" name="Gather_2131520" type="Gather" version="opset7">
			<data batch_dims="0"/>
			<input>
				<port id="0" precision="I64">
					<dim>2</dim>
				</port>
				<port id="1" precision="I32"/>
				<port id="2" precision="I64"/>
			</input>
			<output>
				<port id="3" precision="I64" names="556"/>
			</output>
		</layer>
		<layer id="216" name="Unsqueeze_214/Dims" type="Const" version="opset1">
			<data element_type="i64" shape="1" offset="131332" size="8"/>
			<output>
				<port id="0" precision="I64">
					<dim>1</dim>
				</port>
			</output>
		</layer>
		<layer id="217" name="Unsqueeze_214/Unsqueeze" type="Unsqueeze" version="opset1">
			<input>
				<port id="0" precision="I64"/>
				<port id="1" precision="I64">
					<dim>1</dim>
				</port>
			</input>
			<output>
				<port id="2" precision="I64" names="560">
					<dim>1</dim>
				</port>
			</output>
		</layer>
		<layer id="218" name="1602" type="Const" version="opset1">
			<data element_type="i64" shape="1" offset="131340" size="8"/>
			<output>
				<port id="0" precision="I64" names="1602">
					<dim>1</dim>
				</port>
			</output>
		</layer>
		<layer id="219" name="1603" type="Const" version="opset1">
			<data element_type="i64" shape="1" offset="131348" size="8"/>
			<output>
				<port id="0" precision="I64" names="1603">
					<dim>1</dim>
				</port>
			</output>
		</layer>
		<layer id="220" name="1604" type="Const" version="opset1">
			<data element_type="i64" shape="1" offset="131348" size="8"/>
			<output>
				<port id="0" precision="I64" names="1604">
					<dim>1</dim>
				</port>
			</output>
		</layer>
		<layer id="221" name="Concat_215" type="Concat" version="opset1">
			<data axis="0"/>
			<input>
				<port id="0" precision="I64">
					<dim>1</dim>
				</port>
				<port id="1" precision="I64">
					<dim>1</dim>
				</port>
				<port id="2" precision="I64">
					<dim>1</dim>
				</port>
				<port id="3" precision="I64">
					<dim>1</dim>
				</port>
			</input>
			<output>
				<port id="4" precision="I64" names="564">
					<dim>4</dim>
				</port>
			</output>
		</layer>
		<layer id="222" name="Reshape_216" type="Reshape" version="opset1">
			<data special_zero="true"/>
			<input>
				<port id="0" precision="FP32">
					<dim>1</dim>
					<dim>512</dim>
				</port>
				<port id="1" precision="I64">
					<dim>4</dim>
				</port>
			</input>
			<output>
				<port id="2" precision="FP32" names="565">
					<dim>1</dim>
					<dim>512</dim>
					<dim>1</dim>
					<dim>1</dim>
				</port>
			</output>
		</layer>
		<layer id="223" name="Constant_217" type="Const" version="opset1">
			<data element_type="f32" shape="1, 1, 1, 1" offset="4399536" size="4"/>
			<output>
				<port id="0" precision="FP32" names="566">
					<dim>1</dim>
					<dim>1</dim>
					<dim>1</dim>
					<dim>1</dim>
				</port>
			</output>
		</layer>
		<layer id="224" name="Mul_218" type="Multiply" version="opset1">
			<data auto_broadcast="numpy"/>
			<input>
				<port id="0" precision="FP32">
					<dim>1</dim>
					<dim>512</dim>
					<dim>1</dim>
					<dim>1</dim>
				</port>
				<port id="1" precision="FP32">
					<dim>1</dim>
					<dim>1</dim>
					<dim>1</dim>
					<dim>1</dim>
				</port>
			</input>
			<output>
				<port id="2" precision="FP32" names="567">
					<dim>1</dim>
					<dim>512</dim>
					<dim>1</dim>
					<dim>1</dim>
				</port>
			</output>
		</layer>
		<layer id="225" name="m.layers.1.conv1.conv.modulation.weight" type="Const" version="opset1">
			<data element_type="f32" shape="128, 512" offset="9127348" size="262144"/>
			<output>
				<port id="0" precision="FP32" names="m.layers.1.conv1.conv.modulation.weight">
					<dim>128</dim>
					<dim>512</dim>
				</port>
			</output>
		</layer>
		<layer id="226" name="Gemm_177/WithoutBiases" type="MatMul" version="opset1">
			<data transpose_a="false" transpose_b="true"/>
			<input>
				<port id="0" precision="FP32">
					<dim>1</dim>
					<dim>512</dim>
				</port>
				<port id="1" precision="FP32">
					<dim>128</dim>
					<dim>512</dim>
				</port>
			</input>
			<output>
				<port id="2" precision="FP32">
					<dim>1</dim>
					<dim>128</dim>
				</port>
			</output>
		</layer>
		<layer id="227" name="m.layers.1.conv1.conv.modulation.bias" type="Const" version="opset1">
			<data element_type="f32" shape="1, 128" offset="9389492" size="512"/>
			<output>
				<port id="0" precision="FP32" names="m.layers.1.conv1.conv.modulation.bias">
					<dim>1</dim>
					<dim>128</dim>
				</port>
			</output>
		</layer>
		<layer id="228" name="Gemm_177" type="Add" version="opset1">
			<data auto_broadcast="numpy"/>
			<input>
				<port id="0" precision="FP32">
					<dim>1</dim>
					<dim>128</dim>
				</port>
				<port id="1" precision="FP32">
					<dim>1</dim>
					<dim>128</dim>
				</port>
			</input>
			<output>
				<port id="2" precision="FP32" names="501">
					<dim>1</dim>
					<dim>128</dim>
				</port>
			</output>
		</layer>
		<layer id="229" name="Shape_178" type="ShapeOf" version="opset3">
			<data output_type="i64"/>
			<input>
				<port id="0" precision="FP32">
					<dim>1</dim>
					<dim>512</dim>
				</port>
			</input>
			<output>
				<port id="1" precision="I64" names="502">
					<dim>2</dim>
				</port>
			</output>
		</layer>
		<layer id="230" name="Constant_179" type="Const" version="opset1">
			<data element_type="i32" shape="" offset="131328" size="4"/>
			<output>
				<port id="0" precision="I32" names="503"/>
			</output>
		</layer>
		<layer id="231" name="Gather_180/axis" type="Const" version="opset1">
			<data element_type="i64" shape="" offset="131332" size="8"/>
			<output>
				<port id="0" precision="I64"/>
			</output>
		</layer>
		<layer id="232" name="Gather_1801510" type="Gather" version="opset7">
			<data batch_dims="0"/>
			<input>
				<port id="0" precision="I64">
					<dim>2</dim>
				</port>
				<port id="1" precision="I32"/>
				<port id="2" precision="I64"/>
			</input>
			<output>
				<port id="3" precision="I64" names="504"/>
			</output>
		</layer>
		<layer id="233" name="Unsqueeze_181/Dims" type="Const" version="opset1">
			<data element_type="i64" shape="1" offset="131332" size="8"/>
			<output>
				<port id="0" precision="I64">
					<dim>1</dim>
				</port>
			</output>
		</layer>
		<layer id="234" name="Unsqueeze_181/Unsqueeze" type="Unsqueeze" version="opset1">
			<input>
				<port id="0" precision="I64"/>
				<port id="1" precision="I64">
					<dim>1</dim>
				</port>
			</input>
			<output>
				<port id="2" precision="I64" names="508">
					<dim>1</dim>
				</port>
			</output>
		</layer>
		<layer id="235" name="1590" type="Const" version="opset1">
			<data element_type="i64" shape="1" offset="131340" size="8"/>
			<output>
				<port id="0" precision="I64" names="1590">
					<dim>1</dim>
				</port>
			</output>
		</layer>
		<layer id="236" name="1591" type="Const" version="opset1">
			<data element_type="i64" shape="1" offset="131348" size="8"/>
			<output>
				<port id="0" precision="I64" names="1591">
					<dim>1</dim>
				</port>
			</output>
		</layer>
		<layer id="237" name="1592" type="Const" version="opset1">
			<data element_type="i64" shape="1" offset="131348" size="8"/>
			<output>
				<port id="0" precision="I64" names="1592">
					<dim>1</dim>
				</port>
			</output>
		</layer>
		<layer id="238" name="Concat_182" type="Concat" version="opset1">
			<data axis="0"/>
			<input>
				<port id="0" precision="I64">
					<dim>1</dim>
				</port>
				<port id="1" precision="I64">
					<dim>1</dim>
				</port>
				<port id="2" precision="I64">
					<dim>1</dim>
				</port>
				<port id="3" precision="I64">
					<dim>1</dim>
				</port>
			</input>
			<output>
				<port id="4" precision="I64" names="512">
					<dim>4</dim>
				</port>
			</output>
		</layer>
		<layer id="239" name="Reshape_183" type="Reshape" version="opset1">
			<data special_zero="true"/>
			<input>
				<port id="0" precision="FP32">
					<dim>1</dim>
					<dim>128</dim>
				</port>
				<port id="1" precision="I64">
					<dim>4</dim>
				</port>
			</input>
			<output>
				<port id="2" precision="FP32" names="513">
					<dim>1</dim>
					<dim>128</dim>
					<dim>1</dim>
					<dim>1</dim>
				</port>
			</output>
		</layer>
		<layer id="240" name="Constant_184" type="Const" version="opset1">
			<data element_type="f32" shape="1, 1, 1, 1" offset="853672" size="4"/>
			<output>
				<port id="0" precision="FP32" names="514">
					<dim>1</dim>
					<dim>1</dim>
					<dim>1</dim>
					<dim>1</dim>
				</port>
			</output>
		</layer>
		<layer id="241" name="Mul_185" type="Multiply" version="opset1">
			<data auto_broadcast="numpy"/>
			<input>
				<port id="0" precision="FP32">
					<dim>1</dim>
					<dim>128</dim>
					<dim>1</dim>
					<dim>1</dim>
				</port>
				<port id="1" precision="FP32">
					<dim>1</dim>
					<dim>1</dim>
					<dim>1</dim>
					<dim>1</dim>
				</port>
			</input>
			<output>
				<port id="2" precision="FP32" names="515">
					<dim>1</dim>
					<dim>128</dim>
					<dim>1</dim>
					<dim>1</dim>
				</port>
			</output>
		</layer>
		<layer id="242" name="m.layers.1.up.modulation.weight" type="Const" version="opset1">
			<data element_type="f32" shape="512, 512" offset="9390004" size="1048576"/>
			<output>
				<port id="0" precision="FP32" names="m.layers.1.up.modulation.weight">
					<dim>512</dim>
					<dim>512</dim>
				</port>
			</output>
		</layer>
		<layer id="243" name="Gemm_152/WithoutBiases" type="MatMul" version="opset1">
			<data transpose_a="false" transpose_b="true"/>
			<input>
				<port id="0" precision="FP32">
					<dim>1</dim>
					<dim>512</dim>
				</port>
				<port id="1" precision="FP32">
					<dim>512</dim>
					<dim>512</dim>
				</port>
			</input>
			<output>
				<port id="2" precision="FP32">
					<dim>1</dim>
					<dim>512</dim>
				</port>
			</output>
		</layer>
		<layer id="244" name="m.layers.1.up.modulation.bias" type="Const" version="opset1">
			<data element_type="f32" shape="1, 512" offset="10438580" size="2048"/>
			<output>
				<port id="0" precision="FP32" names="m.layers.1.up.modulation.bias">
					<dim>1</dim>
					<dim>512</dim>
				</port>
			</output>
		</layer>
		<layer id="245" name="Gemm_152" type="Add" version="opset1">
			<data auto_broadcast="numpy"/>
			<input>
				<port id="0" precision="FP32">
					<dim>1</dim>
					<dim>512</dim>
				</port>
				<port id="1" precision="FP32">
					<dim>1</dim>
					<dim>512</dim>
				</port>
			</input>
			<output>
				<port id="2" precision="FP32" names="446">
					<dim>1</dim>
					<dim>512</dim>
				</port>
			</output>
		</layer>
		<layer id="246" name="m.layers.0.conv2.conv.modulation.weight" type="Const" version="opset1">
			<data element_type="f32" shape="512, 512" offset="10440628" size="1048576"/>
			<output>
				<port id="0" precision="FP32" names="m.layers.0.conv2.conv.modulation.weight">
					<dim>512</dim>
					<dim>512</dim>
				</port>
			</output>
		</layer>
		<layer id="247" name="Gemm_110/WithoutBiases" type="MatMul" version="opset1">
			<data transpose_a="false" transpose_b="true"/>
			<input>
				<port id="0" precision="FP32">
					<dim>1</dim>
					<dim>512</dim>
				</port>
				<port id="1" precision="FP32">
					<dim>512</dim>
					<dim>512</dim>
				</port>
			</input>
			<output>
				<port id="2" precision="FP32">
					<dim>1</dim>
					<dim>512</dim>
				</port>
			</output>
		</layer>
		<layer id="248" name="m.layers.0.conv2.conv.modulation.bias" type="Const" version="opset1">
			<data element_type="f32" shape="1, 512" offset="11489204" size="2048"/>
			<output>
				<port id="0" precision="FP32" names="m.layers.0.conv2.conv.modulation.bias">
					<dim>1</dim>
					<dim>512</dim>
				</port>
			</output>
		</layer>
		<layer id="249" name="Gemm_110" type="Add" version="opset1">
			<data auto_broadcast="numpy"/>
			<input>
				<port id="0" precision="FP32">
					<dim>1</dim>
					<dim>512</dim>
				</port>
				<port id="1" precision="FP32">
					<dim>1</dim>
					<dim>512</dim>
				</port>
			</input>
			<output>
				<port id="2" precision="FP32" names="385">
					<dim>1</dim>
					<dim>512</dim>
				</port>
			</output>
		</layer>
		<layer id="250" name="Shape_111" type="ShapeOf" version="opset3">
			<data output_type="i64"/>
			<input>
				<port id="0" precision="FP32">
					<dim>1</dim>
					<dim>512</dim>
				</port>
			</input>
			<output>
				<port id="1" precision="I64" names="386">
					<dim>2</dim>
				</port>
			</output>
		</layer>
		<layer id="251" name="Constant_112" type="Const" version="opset1">
			<data element_type="i32" shape="" offset="131328" size="4"/>
			<output>
				<port id="0" precision="I32" names="387"/>
			</output>
		</layer>
		<layer id="252" name="Gather_113/axis" type="Const" version="opset1">
			<data element_type="i64" shape="" offset="131332" size="8"/>
			<output>
				<port id="0" precision="I64"/>
			</output>
		</layer>
		<layer id="253" name="Gather_1131564" type="Gather" version="opset7">
			<data batch_dims="0"/>
			<input>
				<port id="0" precision="I64">
					<dim>2</dim>
				</port>
				<port id="1" precision="I32"/>
				<port id="2" precision="I64"/>
			</input>
			<output>
				<port id="3" precision="I64" names="388"/>
			</output>
		</layer>
		<layer id="254" name="Unsqueeze_114/Dims" type="Const" version="opset1">
			<data element_type="i64" shape="1" offset="131332" size="8"/>
			<output>
				<port id="0" precision="I64">
					<dim>1</dim>
				</port>
			</output>
		</layer>
		<layer id="255" name="Unsqueeze_114/Unsqueeze" type="Unsqueeze" version="opset1">
			<input>
				<port id="0" precision="I64"/>
				<port id="1" precision="I64">
					<dim>1</dim>
				</port>
			</input>
			<output>
				<port id="2" precision="I64" names="392">
					<dim>1</dim>
				</port>
			</output>
		</layer>
		<layer id="256" name="1561" type="Const" version="opset1">
			<data element_type="i64" shape="1" offset="131340" size="8"/>
			<output>
				<port id="0" precision="I64" names="1561">
					<dim>1</dim>
				</port>
			</output>
		</layer>
		<layer id="257" name="1562" type="Const" version="opset1">
			<data element_type="i64" shape="1" offset="131348" size="8"/>
			<output>
				<port id="0" precision="I64" names="1562">
					<dim>1</dim>
				</port>
			</output>
		</layer>
		<layer id="258" name="1563" type="Const" version="opset1">
			<data element_type="i64" shape="1" offset="131348" size="8"/>
			<output>
				<port id="0" precision="I64" names="1563">
					<dim>1</dim>
				</port>
			</output>
		</layer>
		<layer id="259" name="Concat_115" type="Concat" version="opset1">
			<data axis="0"/>
			<input>
				<port id="0" precision="I64">
					<dim>1</dim>
				</port>
				<port id="1" precision="I64">
					<dim>1</dim>
				</port>
				<port id="2" precision="I64">
					<dim>1</dim>
				</port>
				<port id="3" precision="I64">
					<dim>1</dim>
				</port>
			</input>
			<output>
				<port id="4" precision="I64" names="396">
					<dim>4</dim>
				</port>
			</output>
		</layer>
		<layer id="260" name="Reshape_116" type="Reshape" version="opset1">
			<data special_zero="true"/>
			<input>
				<port id="0" precision="FP32">
					<dim>1</dim>
					<dim>512</dim>
				</port>
				<port id="1" precision="I64">
					<dim>4</dim>
				</port>
			</input>
			<output>
				<port id="2" precision="FP32" names="397">
					<dim>1</dim>
					<dim>512</dim>
					<dim>1</dim>
					<dim>1</dim>
				</port>
			</output>
		</layer>
		<layer id="261" name="Constant_117" type="Const" version="opset1">
			<data element_type="f32" shape="1, 1, 1, 1" offset="4399536" size="4"/>
			<output>
				<port id="0" precision="FP32" names="398">
					<dim>1</dim>
					<dim>1</dim>
					<dim>1</dim>
					<dim>1</dim>
				</port>
			</output>
		</layer>
		<layer id="262" name="Mul_118" type="Multiply" version="opset1">
			<data auto_broadcast="numpy"/>
			<input>
				<port id="0" precision="FP32">
					<dim>1</dim>
					<dim>512</dim>
					<dim>1</dim>
					<dim>1</dim>
				</port>
				<port id="1" precision="FP32">
					<dim>1</dim>
					<dim>1</dim>
					<dim>1</dim>
					<dim>1</dim>
				</port>
			</input>
			<output>
				<port id="2" precision="FP32" names="399">
					<dim>1</dim>
					<dim>512</dim>
					<dim>1</dim>
					<dim>1</dim>
				</port>
			</output>
		</layer>
		<layer id="263" name="m.layers.0.conv1.conv.modulation.weight" type="Const" version="opset1">
			<data element_type="f32" shape="128, 512" offset="11491252" size="262144"/>
			<output>
				<port id="0" precision="FP32" names="m.layers.0.conv1.conv.modulation.weight">
					<dim>128</dim>
					<dim>512</dim>
				</port>
			</output>
		</layer>
		<layer id="264" name="Gemm_77/WithoutBiases" type="MatMul" version="opset1">
			<data transpose_a="false" transpose_b="true"/>
			<input>
				<port id="0" precision="FP32">
					<dim>1</dim>
					<dim>512</dim>
				</port>
				<port id="1" precision="FP32">
					<dim>128</dim>
					<dim>512</dim>
				</port>
			</input>
			<output>
				<port id="2" precision="FP32">
					<dim>1</dim>
					<dim>128</dim>
				</port>
			</output>
		</layer>
		<layer id="265" name="m.layers.0.conv1.conv.modulation.bias" type="Const" version="opset1">
			<data element_type="f32" shape="1, 128" offset="11753396" size="512"/>
			<output>
				<port id="0" precision="FP32" names="m.layers.0.conv1.conv.modulation.bias">
					<dim>1</dim>
					<dim>128</dim>
				</port>
			</output>
		</layer>
		<layer id="266" name="Gemm_77" type="Add" version="opset1">
			<data auto_broadcast="numpy"/>
			<input>
				<port id="0" precision="FP32">
					<dim>1</dim>
					<dim>128</dim>
				</port>
				<port id="1" precision="FP32">
					<dim>1</dim>
					<dim>128</dim>
				</port>
			</input>
			<output>
				<port id="2" precision="FP32" names="333">
					<dim>1</dim>
					<dim>128</dim>
				</port>
			</output>
		</layer>
		<layer id="267" name="Shape_78" type="ShapeOf" version="opset3">
			<data output_type="i64"/>
			<input>
				<port id="0" precision="FP32">
					<dim>1</dim>
					<dim>512</dim>
				</port>
			</input>
			<output>
				<port id="1" precision="I64" names="334">
					<dim>2</dim>
				</port>
			</output>
		</layer>
		<layer id="268" name="Constant_79" type="Const" version="opset1">
			<data element_type="i32" shape="" offset="131328" size="4"/>
			<output>
				<port id="0" precision="I32" names="335"/>
			</output>
		</layer>
		<layer id="269" name="Gather_80/axis" type="Const" version="opset1">
			<data element_type="i64" shape="" offset="131332" size="8"/>
			<output>
				<port id="0" precision="I64"/>
			</output>
		</layer>
		<layer id="270" name="Gather_801536" type="Gather" version="opset7">
			<data batch_dims="0"/>
			<input>
				<port id="0" precision="I64">
					<dim>2</dim>
				</port>
				<port id="1" precision="I32"/>
				<port id="2" precision="I64"/>
			</input>
			<output>
				<port id="3" precision="I64" names="336"/>
			</output>
		</layer>
		<layer id="271" name="Unsqueeze_81/Dims" type="Const" version="opset1">
			<data element_type="i64" shape="1" offset="131332" size="8"/>
			<output>
				<port id="0" precision="I64">
					<dim>1</dim>
				</port>
			</output>
		</layer>
		<layer id="272" name="Unsqueeze_81/Unsqueeze" type="Unsqueeze" version="opset1">
			<input>
				<port id="0" precision="I64"/>
				<port id="1" precision="I64">
					<dim>1</dim>
				</port>
			</input>
			<output>
				<port id="2" precision="I64" names="340">
					<dim>1</dim>
				</port>
			</output>
		</layer>
		<layer id="273" name="1549" type="Const" version="opset1">
			<data element_type="i64" shape="1" offset="131340" size="8"/>
			<output>
				<port id="0" precision="I64" names="1549">
					<dim>1</dim>
				</port>
			</output>
		</layer>
		<layer id="274" name="1550" type="Const" version="opset1">
			<data element_type="i64" shape="1" offset="131348" size="8"/>
			<output>
				<port id="0" precision="I64" names="1550">
					<dim>1</dim>
				</port>
			</output>
		</layer>
		<layer id="275" name="1551" type="Const" version="opset1">
			<data element_type="i64" shape="1" offset="131348" size="8"/>
			<output>
				<port id="0" precision="I64" names="1551">
					<dim>1</dim>
				</port>
			</output>
		</layer>
		<layer id="276" name="Concat_82" type="Concat" version="opset1">
			<data axis="0"/>
			<input>
				<port id="0" precision="I64">
					<dim>1</dim>
				</port>
				<port id="1" precision="I64">
					<dim>1</dim>
				</port>
				<port id="2" precision="I64">
					<dim>1</dim>
				</port>
				<port id="3" precision="I64">
					<dim>1</dim>
				</port>
			</input>
			<output>
				<port id="4" precision="I64" names="344">
					<dim>4</dim>
				</port>
			</output>
		</layer>
		<layer id="277" name="Reshape_83" type="Reshape" version="opset1">
			<data special_zero="true"/>
			<input>
				<port id="0" precision="FP32">
					<dim>1</dim>
					<dim>128</dim>
				</port>
				<port id="1" precision="I64">
					<dim>4</dim>
				</port>
			</input>
			<output>
				<port id="2" precision="FP32" names="345">
					<dim>1</dim>
					<dim>128</dim>
					<dim>1</dim>
					<dim>1</dim>
				</port>
			</output>
		</layer>
		<layer id="278" name="Constant_84" type="Const" version="opset1">
			<data element_type="f32" shape="1, 1, 1, 1" offset="853672" size="4"/>
			<output>
				<port id="0" precision="FP32" names="346">
					<dim>1</dim>
					<dim>1</dim>
					<dim>1</dim>
					<dim>1</dim>
				</port>
			</output>
		</layer>
		<layer id="279" name="Mul_85" type="Multiply" version="opset1">
			<data auto_broadcast="numpy"/>
			<input>
				<port id="0" precision="FP32">
					<dim>1</dim>
					<dim>128</dim>
					<dim>1</dim>
					<dim>1</dim>
				</port>
				<port id="1" precision="FP32">
					<dim>1</dim>
					<dim>1</dim>
					<dim>1</dim>
					<dim>1</dim>
				</port>
			</input>
			<output>
				<port id="2" precision="FP32" names="347">
					<dim>1</dim>
					<dim>128</dim>
					<dim>1</dim>
					<dim>1</dim>
				</port>
			</output>
		</layer>
		<layer id="280" name="m.layers.0.up.modulation.weight" type="Const" version="opset1">
			<data element_type="f32" shape="512, 512" offset="11753908" size="1048576"/>
			<output>
				<port id="0" precision="FP32" names="m.layers.0.up.modulation.weight">
					<dim>512</dim>
					<dim>512</dim>
				</port>
			</output>
		</layer>
		<layer id="281" name="Gemm_52/WithoutBiases" type="MatMul" version="opset1">
			<data transpose_a="false" transpose_b="true"/>
			<input>
				<port id="0" precision="FP32">
					<dim>1</dim>
					<dim>512</dim>
				</port>
				<port id="1" precision="FP32">
					<dim>512</dim>
					<dim>512</dim>
				</port>
			</input>
			<output>
				<port id="2" precision="FP32">
					<dim>1</dim>
					<dim>512</dim>
				</port>
			</output>
		</layer>
		<layer id="282" name="m.layers.0.up.modulation.bias" type="Const" version="opset1">
			<data element_type="f32" shape="1, 512" offset="12802484" size="2048"/>
			<output>
				<port id="0" precision="FP32" names="m.layers.0.up.modulation.bias">
					<dim>1</dim>
					<dim>512</dim>
				</port>
			</output>
		</layer>
		<layer id="283" name="Gemm_52" type="Add" version="opset1">
			<data auto_broadcast="numpy"/>
			<input>
				<port id="0" precision="FP32">
					<dim>1</dim>
					<dim>512</dim>
				</port>
				<port id="1" precision="FP32">
					<dim>1</dim>
					<dim>512</dim>
				</port>
			</input>
			<output>
				<port id="2" precision="FP32" names="278">
					<dim>1</dim>
					<dim>512</dim>
				</port>
			</output>
		</layer>
		<layer id="284" name="m.conv1.conv.modulation.weight" type="Const" version="opset1">
			<data element_type="f32" shape="512, 512" offset="12804532" size="1048576"/>
			<output>
				<port id="0" precision="FP32" names="m.conv1.conv.modulation.weight">
					<dim>512</dim>
					<dim>512</dim>
				</port>
			</output>
		</layer>
		<layer id="285" name="Gemm_11/WithoutBiases" type="MatMul" version="opset1">
			<data transpose_a="false" transpose_b="true"/>
			<input>
				<port id="0" precision="FP32">
					<dim>1</dim>
					<dim>512</dim>
				</port>
				<port id="1" precision="FP32">
					<dim>512</dim>
					<dim>512</dim>
				</port>
			</input>
			<output>
				<port id="2" precision="FP32">
					<dim>1</dim>
					<dim>512</dim>
				</port>
			</output>
		</layer>
		<layer id="286" name="m.conv1.conv.modulation.bias" type="Const" version="opset1">
			<data element_type="f32" shape="1, 512" offset="13853108" size="2048"/>
			<output>
				<port id="0" precision="FP32" names="m.conv1.conv.modulation.bias">
					<dim>1</dim>
					<dim>512</dim>
				</port>
			</output>
		</layer>
		<layer id="287" name="Gemm_11" type="Add" version="opset1">
			<data auto_broadcast="numpy"/>
			<input>
				<port id="0" precision="FP32">
					<dim>1</dim>
					<dim>512</dim>
				</port>
				<port id="1" precision="FP32">
					<dim>1</dim>
					<dim>512</dim>
				</port>
			</input>
			<output>
				<port id="2" precision="FP32" names="220">
					<dim>1</dim>
					<dim>512</dim>
				</port>
			</output>
		</layer>
		<layer id="288" name="Shape_12" type="ShapeOf" version="opset3">
			<data output_type="i64"/>
			<input>
				<port id="0" precision="FP32">
					<dim>1</dim>
					<dim>512</dim>
				</port>
			</input>
			<output>
				<port id="1" precision="I64" names="221">
					<dim>2</dim>
				</port>
			</output>
		</layer>
		<layer id="289" name="Constant_13" type="Const" version="opset1">
			<data element_type="i32" shape="" offset="131328" size="4"/>
			<output>
				<port id="0" precision="I32" names="222"/>
			</output>
		</layer>
		<layer id="290" name="Gather_14/axis" type="Const" version="opset1">
			<data element_type="i64" shape="" offset="131332" size="8"/>
			<output>
				<port id="0" precision="I64"/>
			</output>
		</layer>
		<layer id="291" name="Gather_141456" type="Gather" version="opset7">
			<data batch_dims="0"/>
			<input>
				<port id="0" precision="I64">
					<dim>2</dim>
				</port>
				<port id="1" precision="I32"/>
				<port id="2" precision="I64"/>
			</input>
			<output>
				<port id="3" precision="I64" names="223"/>
			</output>
		</layer>
		<layer id="292" name="Unsqueeze_15/Dims" type="Const" version="opset1">
			<data element_type="i64" shape="1" offset="131332" size="8"/>
			<output>
				<port id="0" precision="I64">
					<dim>1</dim>
				</port>
			</output>
		</layer>
		<layer id="293" name="Unsqueeze_15/Unsqueeze" type="Unsqueeze" version="opset1">
			<input>
				<port id="0" precision="I64"/>
				<port id="1" precision="I64">
					<dim>1</dim>
				</port>
			</input>
			<output>
				<port id="2" precision="I64" names="227">
					<dim>1</dim>
				</port>
			</output>
		</layer>
		<layer id="294" name="1522" type="Const" version="opset1">
			<data element_type="i64" shape="1" offset="131340" size="8"/>
			<output>
				<port id="0" precision="I64" names="1522">
					<dim>1</dim>
				</port>
			</output>
		</layer>
		<layer id="295" name="1523" type="Const" version="opset1">
			<data element_type="i64" shape="1" offset="131348" size="8"/>
			<output>
				<port id="0" precision="I64" names="1523">
					<dim>1</dim>
				</port>
			</output>
		</layer>
		<layer id="296" name="1524" type="Const" version="opset1">
			<data element_type="i64" shape="1" offset="131348" size="8"/>
			<output>
				<port id="0" precision="I64" names="1524">
					<dim>1</dim>
				</port>
			</output>
		</layer>
		<layer id="297" name="Concat_16" type="Concat" version="opset1">
			<data axis="0"/>
			<input>
				<port id="0" precision="I64">
					<dim>1</dim>
				</port>
				<port id="1" precision="I64">
					<dim>1</dim>
				</port>
				<port id="2" precision="I64">
					<dim>1</dim>
				</port>
				<port id="3" precision="I64">
					<dim>1</dim>
				</port>
			</input>
			<output>
				<port id="4" precision="I64" names="231">
					<dim>4</dim>
				</port>
			</output>
		</layer>
		<layer id="298" name="Reshape_17" type="Reshape" version="opset1">
			<data special_zero="true"/>
			<input>
				<port id="0" precision="FP32">
					<dim>1</dim>
					<dim>512</dim>
				</port>
				<port id="1" precision="I64">
					<dim>4</dim>
				</port>
			</input>
			<output>
				<port id="2" precision="FP32" names="232">
					<dim>1</dim>
					<dim>512</dim>
					<dim>1</dim>
					<dim>1</dim>
				</port>
			</output>
		</layer>
		<layer id="299" name="Constant_18" type="Const" version="opset1">
			<data element_type="f32" shape="1, 1, 1, 1" offset="4399536" size="4"/>
			<output>
				<port id="0" precision="FP32" names="233">
					<dim>1</dim>
					<dim>1</dim>
					<dim>1</dim>
					<dim>1</dim>
				</port>
			</output>
		</layer>
		<layer id="300" name="Mul_19" type="Multiply" version="opset1">
			<data auto_broadcast="numpy"/>
			<input>
				<port id="0" precision="FP32">
					<dim>1</dim>
					<dim>512</dim>
					<dim>1</dim>
					<dim>1</dim>
				</port>
				<port id="1" precision="FP32">
					<dim>1</dim>
					<dim>1</dim>
					<dim>1</dim>
					<dim>1</dim>
				</port>
			</input>
			<output>
				<port id="2" precision="FP32" names="234">
					<dim>1</dim>
					<dim>512</dim>
					<dim>1</dim>
					<dim>1</dim>
				</port>
			</output>
		</layer>
		<layer id="301" name="m.input.input" type="Const" version="opset1">
			<data element_type="f32" shape="1, 512, 4, 4" offset="13855156" size="32768"/>
			<output>
				<port id="0" precision="FP32" names="m.input.input">
					<dim>1</dim>
					<dim>512</dim>
					<dim>4</dim>
					<dim>4</dim>
				</port>
			</output>
		</layer>
		<layer id="302" name="ConstantOfShape_8/Broadcast/FillValue" type="Const" version="opset1">
			<data element_type="i64" shape="1" offset="131348" size="8"/>
			<output>
				<port id="0" precision="I64">
					<dim>1</dim>
				</port>
			</output>
		</layer>
		<layer id="303" name="Shape_0" type="ShapeOf" version="opset3">
			<data output_type="i64"/>
			<input>
				<port id="0" precision="FP32">
					<dim>1</dim>
					<dim>512</dim>
				</port>
			</input>
			<output>
				<port id="1" precision="I64" names="200">
					<dim>2</dim>
				</port>
			</output>
		</layer>
		<layer id="304" name="Constant_1" type="Const" version="opset1">
			<data element_type="i32" shape="" offset="131328" size="4"/>
			<output>
				<port id="0" precision="I32" names="201"/>
			</output>
		</layer>
		<layer id="305" name="Gather_2/axis" type="Const" version="opset1">
			<data element_type="i64" shape="" offset="131332" size="8"/>
			<output>
				<port id="0" precision="I64"/>
			</output>
		</layer>
		<layer id="306" name="Gather_21478" type="Gather" version="opset7">
			<data batch_dims="0"/>
			<input>
				<port id="0" precision="I64">
					<dim>2</dim>
				</port>
				<port id="1" precision="I32"/>
				<port id="2" precision="I64"/>
			</input>
			<output>
				<port id="3" precision="I64" names="202"/>
			</output>
		</layer>
		<layer id="307" name="Unsqueeze_3/Dims" type="Const" version="opset1">
			<data element_type="i64" shape="1" offset="131332" size="8"/>
			<output>
				<port id="0" precision="I64">
					<dim>1</dim>
				</port>
			</output>
		</layer>
		<layer id="308" name="Unsqueeze_3/Unsqueeze" type="Unsqueeze" version="opset1">
			<input>
				<port id="0" precision="I64"/>
				<port id="1" precision="I64">
					<dim>1</dim>
				</port>
			</input>
			<output>
				<port id="2" precision="I64" names="206">
					<dim>1</dim>
				</port>
			</output>
		</layer>
		<layer id="309" name="1516" type="Const" version="opset1">
			<data element_type="i64" shape="1" offset="131348" size="8"/>
			<output>
				<port id="0" precision="I64" names="1516">
					<dim>1</dim>
				</port>
			</output>
		</layer>
		<layer id="310" name="1517" type="Const" version="opset1">
			<data element_type="i64" shape="1" offset="131348" size="8"/>
			<output>
				<port id="0" precision="I64" names="1517">
					<dim>1</dim>
				</port>
			</output>
		</layer>
		<layer id="311" name="1518" type="Const" version="opset1">
			<data element_type="i64" shape="1" offset="131348" size="8"/>
			<output>
				<port id="0" precision="I64" names="1518">
					<dim>1</dim>
				</port>
			</output>
		</layer>
		<layer id="312" name="Concat_4" type="Concat" version="opset1">
			<data axis="0"/>
			<input>
				<port id="0" precision="I64">
					<dim>1</dim>
				</port>
				<port id="1" precision="I64">
					<dim>1</dim>
				</port>
				<port id="2" precision="I64">
					<dim>1</dim>
				</port>
				<port id="3" precision="I64">
					<dim>1</dim>
				</port>
			</input>
			<output>
				<port id="4" precision="I64" names="210">
					<dim>4</dim>
				</port>
			</output>
		</layer>
		<layer id="313" name="Shape_7" type="ShapeOf" version="opset3">
			<data output_type="i64"/>
			<input>
				<port id="0" precision="I64">
					<dim>4</dim>
				</port>
			</input>
			<output>
				<port id="1" precision="I64" names="216">
					<dim>1</dim>
				</port>
			</output>
		</layer>
		<layer id="314" name="ConstantOfShape_8/Broadcast" type="Broadcast" version="opset3">
			<data mode="numpy"/>
			<input>
				<port id="0" precision="I64">
					<dim>1</dim>
				</port>
				<port id="1" precision="I64">
					<dim>1</dim>
				</port>
			</input>
			<output>
				<port id="2" precision="I64" names="217">
					<dim>4</dim>
				</port>
			</output>
		</layer>
		<layer id="315" name="Expand_9" type="Broadcast" version="opset3">
			<data mode="bidirectional"/>
			<input>
				<port id="0" precision="FP32">
					<dim>1</dim>
					<dim>512</dim>
					<dim>4</dim>
					<dim>4</dim>
				</port>
				<port id="1" precision="I64">
					<dim>4</dim>
				</port>
			</input>
			<output>
				<port id="2" precision="FP32" names="218">
					<dim>1</dim>
					<dim>512</dim>
					<dim>4</dim>
					<dim>4</dim>
				</port>
			</output>
		</layer>
		<layer id="316" name="Unsqueeze_5/Dims" type="Const" version="opset1">
			<data element_type="i64" shape="1" offset="131332" size="8"/>
			<output>
				<port id="0" precision="I64">
					<dim>1</dim>
				</port>
			</output>
		</layer>
		<layer id="317" name="Unsqueeze_5/Unsqueeze" type="Unsqueeze" version="opset1">
			<input>
				<port id="0" precision="I64"/>
				<port id="1" precision="I64">
					<dim>1</dim>
				</port>
			</input>
			<output>
				<port id="2" precision="I64" names="211">
					<dim>1</dim>
				</port>
			</output>
		</layer>
		<layer id="318" name="1519" type="Const" version="opset1">
			<data element_type="i64" shape="1" offset="131348" size="8"/>
			<output>
				<port id="0" precision="I64" names="1519">
					<dim>1</dim>
				</port>
			</output>
		</layer>
		<layer id="319" name="1520" type="Const" version="opset1">
			<data element_type="i64" shape="1" offset="131348" size="8"/>
			<output>
				<port id="0" precision="I64" names="1520">
					<dim>1</dim>
				</port>
			</output>
		</layer>
		<layer id="320" name="1521" type="Const" version="opset1">
			<data element_type="i64" shape="1" offset="131348" size="8"/>
			<output>
				<port id="0" precision="I64" names="1521">
					<dim>1</dim>
				</port>
			</output>
		</layer>
		<layer id="321" name="Concat_6" type="Concat" version="opset1">
			<data axis="0"/>
			<input>
				<port id="0" precision="I64">
					<dim>1</dim>
				</port>
				<port id="1" precision="I64">
					<dim>1</dim>
				</port>
				<port id="2" precision="I64">
					<dim>1</dim>
				</port>
				<port id="3" precision="I64">
					<dim>1</dim>
				</port>
			</input>
			<output>
				<port id="4" precision="I64" names="215">
					<dim>4</dim>
				</port>
			</output>
		</layer>
		<layer id="322" name="Tile_10" type="Tile" version="opset1">
			<input>
				<port id="0" precision="FP32">
					<dim>1</dim>
					<dim>512</dim>
					<dim>4</dim>
					<dim>4</dim>
				</port>
				<port id="1" precision="I64">
					<dim>4</dim>
				</port>
			</input>
			<output>
				<port id="2" precision="FP32" names="219">
					<dim>1</dim>
					<dim>512</dim>
					<dim>4</dim>
					<dim>4</dim>
				</port>
			</output>
		</layer>
		<layer id="323" name="Mul_20" type="Multiply" version="opset1">
			<data auto_broadcast="numpy"/>
			<input>
				<port id="0" precision="FP32">
					<dim>1</dim>
					<dim>512</dim>
					<dim>1</dim>
					<dim>1</dim>
				</port>
				<port id="1" precision="FP32">
					<dim>1</dim>
					<dim>512</dim>
					<dim>4</dim>
					<dim>4</dim>
				</port>
			</input>
			<output>
				<port id="2" precision="FP32" names="235">
					<dim>1</dim>
					<dim>512</dim>
					<dim>4</dim>
					<dim>4</dim>
				</port>
			</output>
		</layer>
		<layer id="324" name="Mul_39_copy" type="Const" version="opset1">
			<data element_type="f32" shape="512, 512, 3, 3" offset="13887924" size="9437184"/>
			<output>
				<port id="0" precision="FP32" names="m.conv1.conv.weight">
					<dim>512</dim>
					<dim>512</dim>
					<dim>3</dim>
					<dim>3</dim>
				</port>
			</output>
		</layer>
		<layer id="325" name="Conv_21" type="Convolution" version="opset1">
			<data strides="1, 1" dilations="1, 1" pads_begin="1, 1" pads_end="1, 1" auto_pad="explicit"/>
			<input>
				<port id="0" precision="FP32">
					<dim>1</dim>
					<dim>512</dim>
					<dim>4</dim>
					<dim>4</dim>
				</port>
				<port id="1" precision="FP32">
					<dim>512</dim>
					<dim>512</dim>
					<dim>3</dim>
					<dim>3</dim>
				</port>
			</input>
			<output>
				<port id="2" precision="FP32" names="264">
					<dim>1</dim>
					<dim>512</dim>
					<dim>4</dim>
					<dim>4</dim>
				</port>
			</output>
		</layer>
		<layer id="326" name="1531" type="Const" version="opset1">
			<data element_type="f32" shape="1, 1, 4, 4" offset="23325108" size="64"/>
			<output>
				<port id="0" precision="FP32" names="1531">
					<dim>1</dim>
					<dim>1</dim>
					<dim>4</dim>
					<dim>4</dim>
				</port>
			</output>
		</layer>
		<layer id="327" name="Add_40" type="Add" version="opset1">
			<data auto_broadcast="numpy"/>
			<input>
				<port id="0" precision="FP32">
					<dim>1</dim>
					<dim>512</dim>
					<dim>4</dim>
					<dim>4</dim>
				</port>
				<port id="1" precision="FP32">
					<dim>1</dim>
					<dim>1</dim>
					<dim>4</dim>
					<dim>4</dim>
				</port>
			</input>
			<output>
				<port id="2" precision="FP32" names="266">
					<dim>1</dim>
					<dim>512</dim>
					<dim>4</dim>
					<dim>4</dim>
				</port>
			</output>
		</layer>
		<layer id="328" name="m.conv1.bias" type="Const" version="opset1">
			<data element_type="f32" shape="1, 512, 1, 1" offset="23325172" size="2048"/>
			<output>
				<port id="0" precision="FP32" names="m.conv1.bias">
					<dim>1</dim>
					<dim>512</dim>
					<dim>1</dim>
					<dim>1</dim>
				</port>
			</output>
		</layer>
		<layer id="329" name="Add_41" type="Add" version="opset1">
			<data auto_broadcast="numpy"/>
			<input>
				<port id="0" precision="FP32">
					<dim>1</dim>
					<dim>512</dim>
					<dim>4</dim>
					<dim>4</dim>
				</port>
				<port id="1" precision="FP32">
					<dim>1</dim>
					<dim>512</dim>
					<dim>1</dim>
					<dim>1</dim>
				</port>
			</input>
			<output>
				<port id="2" precision="FP32" names="267">
					<dim>1</dim>
					<dim>512</dim>
					<dim>4</dim>
					<dim>4</dim>
				</port>
			</output>
		</layer>
		<layer id="330" name="LeakyRelu_42/weights2838840222" type="Const" version="opset1">
			<data element_type="f32" shape="1" offset="23327220" size="4"/>
			<output>
				<port id="0" precision="FP32">
					<dim>1</dim>
				</port>
			</output>
		</layer>
		<layer id="331" name="LeakyRelu_42" type="PReLU" version="opset1">
			<input>
				<port id="0" precision="FP32">
					<dim>1</dim>
					<dim>512</dim>
					<dim>4</dim>
					<dim>4</dim>
				</port>
				<port id="1" precision="FP32">
					<dim>1</dim>
				</port>
			</input>
			<output>
				<port id="2" precision="FP32" names="268">
					<dim>1</dim>
					<dim>512</dim>
					<dim>4</dim>
					<dim>4</dim>
				</port>
			</output>
		</layer>
		<layer id="332" name="Shape_43" type="ShapeOf" version="opset3">
			<data output_type="i64"/>
			<input>
				<port id="0" precision="FP32">
					<dim>1</dim>
					<dim>512</dim>
					<dim>4</dim>
					<dim>4</dim>
				</port>
			</input>
			<output>
				<port id="1" precision="I64" names="269">
					<dim>4</dim>
				</port>
			</output>
		</layer>
		<layer id="333" name="Constant_44" type="Const" version="opset1">
			<data element_type="i32" shape="" offset="131328" size="4"/>
			<output>
				<port id="0" precision="I32" names="270"/>
			</output>
		</layer>
		<layer id="334" name="Gather_45/axis" type="Const" version="opset1">
			<data element_type="i64" shape="" offset="131332" size="8"/>
			<output>
				<port id="0" precision="I64"/>
			</output>
		</layer>
		<layer id="335" name="Gather_451572" type="Gather" version="opset7">
			<data batch_dims="0"/>
			<input>
				<port id="0" precision="I64">
					<dim>4</dim>
				</port>
				<port id="1" precision="I32"/>
				<port id="2" precision="I64"/>
			</input>
			<output>
				<port id="3" precision="I64" names="271"/>
			</output>
		</layer>
		<layer id="336" name="Unsqueeze_53/Dims" type="Const" version="opset1">
			<data element_type="i64" shape="1" offset="131332" size="8"/>
			<output>
				<port id="0" precision="I64">
					<dim>1</dim>
				</port>
			</output>
		</layer>
		<layer id="337" name="Unsqueeze_53/Unsqueeze" type="Unsqueeze" version="opset1">
			<input>
				<port id="0" precision="I64"/>
				<port id="1" precision="I64">
					<dim>1</dim>
				</port>
			</input>
			<output>
				<port id="2" precision="I64" names="282">
					<dim>1</dim>
				</port>
			</output>
		</layer>
		<layer id="338" name="1532" type="Const" version="opset1">
			<data element_type="i64" shape="1" offset="131340" size="8"/>
			<output>
				<port id="0" precision="I64" names="1532">
					<dim>1</dim>
				</port>
			</output>
		</layer>
		<layer id="339" name="1533" type="Const" version="opset1">
			<data element_type="i64" shape="1" offset="131348" size="8"/>
			<output>
				<port id="0" precision="I64" names="1533">
					<dim>1</dim>
				</port>
			</output>
		</layer>
		<layer id="340" name="1534" type="Const" version="opset1">
			<data element_type="i64" shape="1" offset="131348" size="8"/>
			<output>
				<port id="0" precision="I64" names="1534">
					<dim>1</dim>
				</port>
			</output>
		</layer>
		<layer id="341" name="Concat_54" type="Concat" version="opset1">
			<data axis="0"/>
			<input>
				<port id="0" precision="I64">
					<dim>1</dim>
				</port>
				<port id="1" precision="I64">
					<dim>1</dim>
				</port>
				<port id="2" precision="I64">
					<dim>1</dim>
				</port>
				<port id="3" precision="I64">
					<dim>1</dim>
				</port>
			</input>
			<output>
				<port id="4" precision="I64" names="286">
					<dim>4</dim>
				</port>
			</output>
		</layer>
		<layer id="342" name="Reshape_55" type="Reshape" version="opset1">
			<data special_zero="true"/>
			<input>
				<port id="0" precision="FP32">
					<dim>1</dim>
					<dim>512</dim>
				</port>
				<port id="1" precision="I64">
					<dim>4</dim>
				</port>
			</input>
			<output>
				<port id="2" precision="FP32" names="287">
					<dim>1</dim>
					<dim>512</dim>
					<dim>1</dim>
					<dim>1</dim>
				</port>
			</output>
		</layer>
		<layer id="343" name="Mul_56" type="Multiply" version="opset1">
			<data auto_broadcast="numpy"/>
			<input>
				<port id="0" precision="FP32">
					<dim>1</dim>
					<dim>512</dim>
					<dim>1</dim>
					<dim>1</dim>
				</port>
				<port id="1" precision="FP32">
					<dim>1</dim>
					<dim>512</dim>
					<dim>4</dim>
					<dim>4</dim>
				</port>
			</input>
			<output>
				<port id="2" precision="FP32" names="288">
					<dim>1</dim>
					<dim>512</dim>
					<dim>4</dim>
					<dim>4</dim>
				</port>
			</output>
		</layer>
		<layer id="344" name="1410039916" type="Const" version="opset1">
			<data element_type="i64" shape="" offset="131348" size="8"/>
			<output>
				<port id="0" precision="I64"/>
			</output>
		</layer>
		<layer id="345" name="1410240915" type="Const" version="opset1">
			<data element_type="i64" shape="2" offset="23327224" size="16"/>
			<output>
				<port id="0" precision="I64">
					<dim>2</dim>
				</port>
			</output>
		</layer>
		<layer id="346" name="Slice_57/Split" type="VariadicSplit" version="opset1">
			<input>
				<port id="0" precision="FP32">
					<dim>1</dim>
					<dim>512</dim>
					<dim>4</dim>
					<dim>4</dim>
				</port>
				<port id="1" precision="I64"/>
				<port id="2" precision="I64">
					<dim>2</dim>
				</port>
			</input>
			<output>
				<port id="3" precision="FP32" names="289">
					<dim>1</dim>
					<dim>128</dim>
					<dim>4</dim>
					<dim>4</dim>
				</port>
				<port id="4" precision="FP32" names="290">
					<dim>1</dim>
					<dim>384</dim>
					<dim>4</dim>
					<dim>4</dim>
				</port>
			</output>
		</layer>
		<layer id="347" name="1539" type="Const" version="opset1">
			<data element_type="f32" shape="128, 1, 1, 2, 1" offset="23327240" size="1024"/>
			<output>
				<port id="0" precision="FP32" names="1539">
					<dim>128</dim>
					<dim>1</dim>
					<dim>1</dim>
					<dim>2</dim>
					<dim>1</dim>
				</port>
			</output>
		</layer>
		<layer id="348" name="ConvTranspose_68" type="GroupConvolutionBackpropData" version="opset1">
			<data strides="2, 1" pads_begin="0, 0" pads_end="0, 0" dilations="1, 1" auto_pad="explicit" output_padding="0, 0"/>
			<input>
				<port id="0" precision="FP32">
					<dim>1</dim>
					<dim>128</dim>
					<dim>4</dim>
					<dim>4</dim>
				</port>
				<port id="1" precision="FP32">
					<dim>128</dim>
					<dim>1</dim>
					<dim>1</dim>
					<dim>2</dim>
					<dim>1</dim>
				</port>
			</input>
			<output>
				<port id="2" precision="FP32" names="312">
					<dim>1</dim>
					<dim>128</dim>
					<dim>8</dim>
					<dim>4</dim>
				</port>
			</output>
		</layer>
		<layer id="349" name="Unsqueeze_59/Dims" type="Const" version="opset1">
			<data element_type="i64" shape="1" offset="131332" size="8"/>
			<output>
				<port id="0" precision="I64">
					<dim>1</dim>
				</port>
			</output>
		</layer>
		<layer id="350" name="Unsqueeze_59/Unsqueeze" type="Unsqueeze" version="opset1">
			<input>
				<port id="0" precision="I64"/>
				<port id="1" precision="I64">
					<dim>1</dim>
				</port>
			</input>
			<output>
				<port id="2" precision="I64" names="293">
					<dim>1</dim>
				</port>
			</output>
		</layer>
		<layer id="351" name="1535" type="Const" version="opset1">
			<data element_type="i64" shape="1" offset="23328264" size="8"/>
			<output>
				<port id="0" precision="I64" names="1535">
					<dim>1</dim>
				</port>
			</output>
		</layer>
		<layer id="352" name="1536" type="Const" version="opset1">
			<data element_type="i64" shape="1" offset="23328272" size="8"/>
			<output>
				<port id="0" precision="I64" names="1536">
					<dim>1</dim>
				</port>
			</output>
		</layer>
		<layer id="353" name="Shape_46" type="ShapeOf" version="opset3">
			<data output_type="i64"/>
			<input>
				<port id="0" precision="FP32">
					<dim>1</dim>
					<dim>512</dim>
					<dim>4</dim>
					<dim>4</dim>
				</port>
			</input>
			<output>
				<port id="1" precision="I64" names="272">
					<dim>4</dim>
				</port>
			</output>
		</layer>
		<layer id="354" name="Constant_47" type="Const" version="opset1">
			<data element_type="i32" shape="" offset="23328280" size="4"/>
			<output>
				<port id="0" precision="I32" names="273"/>
			</output>
		</layer>
		<layer id="355" name="Gather_48/axis" type="Const" version="opset1">
			<data element_type="i64" shape="" offset="131332" size="8"/>
			<output>
				<port id="0" precision="I64"/>
			</output>
		</layer>
		<layer id="356" name="Gather_481466" type="Gather" version="opset7">
			<data batch_dims="0"/>
			<input>
				<port id="0" precision="I64">
					<dim>4</dim>
				</port>
				<port id="1" precision="I32"/>
				<port id="2" precision="I64"/>
			</input>
			<output>
				<port id="3" precision="I64" names="274"/>
			</output>
		</layer>
		<layer id="357" name="Unsqueeze_60/Dims" type="Const" version="opset1">
			<data element_type="i64" shape="1" offset="131332" size="8"/>
			<output>
				<port id="0" precision="I64">
					<dim>1</dim>
				</port>
			</output>
		</layer>
		<layer id="358" name="Unsqueeze_60/Unsqueeze" type="Unsqueeze" version="opset1">
			<input>
				<port id="0" precision="I64"/>
				<port id="1" precision="I64">
					<dim>1</dim>
				</port>
			</input>
			<output>
				<port id="2" precision="I64" names="296">
					<dim>1</dim>
				</port>
			</output>
		</layer>
		<layer id="359" name="Shape_49" type="ShapeOf" version="opset3">
			<data output_type="i64"/>
			<input>
				<port id="0" precision="FP32">
					<dim>1</dim>
					<dim>512</dim>
					<dim>4</dim>
					<dim>4</dim>
				</port>
			</input>
			<output>
				<port id="1" precision="I64" names="275">
					<dim>4</dim>
				</port>
			</output>
		</layer>
		<layer id="360" name="Constant_50" type="Const" version="opset1">
			<data element_type="i32" shape="" offset="23328284" size="4"/>
			<output>
				<port id="0" precision="I32" names="276"/>
			</output>
		</layer>
		<layer id="361" name="Gather_51/axis" type="Const" version="opset1">
			<data element_type="i64" shape="" offset="131332" size="8"/>
			<output>
				<port id="0" precision="I64"/>
			</output>
		</layer>
		<layer id="362" name="Gather_511496" type="Gather" version="opset7">
			<data batch_dims="0"/>
			<input>
				<port id="0" precision="I64">
					<dim>4</dim>
				</port>
				<port id="1" precision="I32"/>
				<port id="2" precision="I64"/>
			</input>
			<output>
				<port id="3" precision="I64" names="277"/>
			</output>
		</layer>
		<layer id="363" name="Unsqueeze_61/Dims" type="Const" version="opset1">
			<data element_type="i64" shape="1" offset="131332" size="8"/>
			<output>
				<port id="0" precision="I64">
					<dim>1</dim>
				</port>
			</output>
		</layer>
		<layer id="364" name="Unsqueeze_61/Unsqueeze" type="Unsqueeze" version="opset1">
			<input>
				<port id="0" precision="I64"/>
				<port id="1" precision="I64">
					<dim>1</dim>
				</port>
			</input>
			<output>
				<port id="2" precision="I64" names="297">
					<dim>1</dim>
				</port>
			</output>
		</layer>
		<layer id="365" name="Concat_62" type="Concat" version="opset1">
			<data axis="0"/>
			<input>
				<port id="0" precision="I64">
					<dim>1</dim>
				</port>
				<port id="1" precision="I64">
					<dim>1</dim>
				</port>
				<port id="2" precision="I64">
					<dim>1</dim>
				</port>
				<port id="3" precision="I64">
					<dim>1</dim>
				</port>
				<port id="4" precision="I64">
					<dim>1</dim>
				</port>
			</input>
			<output>
				<port id="5" precision="I64" names="298">
					<dim>5</dim>
				</port>
			</output>
		</layer>
		<layer id="366" name="Reshape_63" type="Reshape" version="opset1">
			<data special_zero="true"/>
			<input>
				<port id="0" precision="FP32">
					<dim>1</dim>
					<dim>384</dim>
					<dim>4</dim>
					<dim>4</dim>
				</port>
				<port id="1" precision="I64">
					<dim>5</dim>
				</port>
			</input>
			<output>
				<port id="2" precision="FP32" names="299">
					<dim>1</dim>
					<dim>128</dim>
					<dim>3</dim>
					<dim>4</dim>
					<dim>4</dim>
				</port>
			</output>
		</layer>
		<layer id="367" name="Split_64/VariadicSplit_input_port_1/value" type="Const" version="opset1">
			<data element_type="i64" shape="" offset="23328288" size="8"/>
			<output>
				<port id="0" precision="I64"/>
			</output>
		</layer>
		<layer id="368" name="Split_64/VariadicSplit_input_port_2/value" type="Const" version="opset1">
			<data element_type="i64" shape="3" offset="23328296" size="24"/>
			<output>
				<port id="0" precision="I64">
					<dim>3</dim>
				</port>
			</output>
		</layer>
		<layer id="369" name="Split_64/VariadicSplit" type="VariadicSplit" version="opset1">
			<input>
				<port id="0" precision="FP32">
					<dim>1</dim>
					<dim>128</dim>
					<dim>3</dim>
					<dim>4</dim>
					<dim>4</dim>
				</port>
				<port id="1" precision="I64"/>
				<port id="2" precision="I64">
					<dim>3</dim>
				</port>
			</input>
			<output>
				<port id="3" precision="FP32" names="300">
					<dim>1</dim>
					<dim>128</dim>
					<dim>1</dim>
					<dim>4</dim>
					<dim>4</dim>
				</port>
				<port id="4" precision="FP32" names="301">
					<dim>1</dim>
					<dim>128</dim>
					<dim>1</dim>
					<dim>4</dim>
					<dim>4</dim>
				</port>
				<port id="5" precision="FP32" names="302">
					<dim>1</dim>
					<dim>128</dim>
					<dim>1</dim>
					<dim>4</dim>
					<dim>4</dim>
				</port>
			</output>
		</layer>
		<layer id="370" name="Squeeze_65/Dims" type="Const" version="opset1">
			<data element_type="i64" shape="1" offset="23328288" size="8"/>
			<output>
				<port id="0" precision="I64">
					<dim>1</dim>
				</port>
			</output>
		</layer>
		<layer id="371" name="Squeeze_65" type="Squeeze" version="opset1">
			<input>
				<port id="0" precision="FP32">
					<dim>1</dim>
					<dim>128</dim>
					<dim>1</dim>
					<dim>4</dim>
					<dim>4</dim>
				</port>
				<port id="1" precision="I64">
					<dim>1</dim>
				</port>
			</input>
			<output>
				<port id="2" precision="FP32" names="303">
					<dim>1</dim>
					<dim>128</dim>
					<dim>4</dim>
					<dim>4</dim>
				</port>
			</output>
		</layer>
		<layer id="372" name="1540" type="Const" version="opset1">
			<data element_type="f32" shape="128, 1, 1, 2, 1" offset="23328320" size="1024"/>
			<output>
				<port id="0" precision="FP32" names="1540">
					<dim>128</dim>
					<dim>1</dim>
					<dim>1</dim>
					<dim>2</dim>
					<dim>1</dim>
				</port>
			</output>
		</layer>
		<layer id="373" name="ConvTranspose_69" type="GroupConvolutionBackpropData" version="opset1">
			<data strides="2, 1" pads_begin="0, 0" pads_end="0, 0" dilations="1, 1" auto_pad="explicit" output_padding="0, 0"/>
			<input>
				<port id="0" precision="FP32">
					<dim>1</dim>
					<dim>128</dim>
					<dim>4</dim>
					<dim>4</dim>
				</port>
				<port id="1" precision="FP32">
					<dim>128</dim>
					<dim>1</dim>
					<dim>1</dim>
					<dim>2</dim>
					<dim>1</dim>
				</port>
			</input>
			<output>
				<port id="2" precision="FP32" names="313">
					<dim>1</dim>
					<dim>128</dim>
					<dim>8</dim>
					<dim>4</dim>
				</port>
			</output>
		</layer>
		<layer id="374" name="Add_70" type="Add" version="opset1">
			<data auto_broadcast="numpy"/>
			<input>
				<port id="0" precision="FP32">
					<dim>1</dim>
					<dim>128</dim>
					<dim>8</dim>
					<dim>4</dim>
				</port>
				<port id="1" precision="FP32">
					<dim>1</dim>
					<dim>128</dim>
					<dim>8</dim>
					<dim>4</dim>
				</port>
			</input>
			<output>
				<port id="2" precision="FP32" names="314">
					<dim>1</dim>
					<dim>128</dim>
					<dim>8</dim>
					<dim>4</dim>
				</port>
			</output>
		</layer>
		<layer id="375" name="1547" type="Const" version="opset1">
			<data element_type="f32" shape="128, 1, 1, 1, 2" offset="23327240" size="1024"/>
			<output>
				<port id="0" precision="FP32" names="1547">
					<dim>128</dim>
					<dim>1</dim>
					<dim>1</dim>
					<dim>1</dim>
					<dim>2</dim>
				</port>
			</output>
		</layer>
		<layer id="376" name="ConvTranspose_74" type="GroupConvolutionBackpropData" version="opset1">
			<data strides="1, 2" pads_begin="0, 0" pads_end="0, 0" dilations="1, 1" auto_pad="explicit" output_padding="0, 0"/>
			<input>
				<port id="0" precision="FP32">
					<dim>1</dim>
					<dim>128</dim>
					<dim>8</dim>
					<dim>4</dim>
				</port>
				<port id="1" precision="FP32">
					<dim>128</dim>
					<dim>1</dim>
					<dim>1</dim>
					<dim>1</dim>
					<dim>2</dim>
				</port>
			</input>
			<output>
				<port id="2" precision="FP32" names="330">
					<dim>1</dim>
					<dim>128</dim>
					<dim>8</dim>
					<dim>8</dim>
				</port>
			</output>
		</layer>
		<layer id="377" name="Squeeze_66/Dims" type="Const" version="opset1">
			<data element_type="i64" shape="1" offset="23328288" size="8"/>
			<output>
				<port id="0" precision="I64">
					<dim>1</dim>
				</port>
			</output>
		</layer>
		<layer id="378" name="Squeeze_66" type="Squeeze" version="opset1">
			<input>
				<port id="0" precision="FP32">
					<dim>1</dim>
					<dim>128</dim>
					<dim>1</dim>
					<dim>4</dim>
					<dim>4</dim>
				</port>
				<port id="1" precision="I64">
					<dim>1</dim>
				</port>
			</input>
			<output>
				<port id="2" precision="FP32" names="304">
					<dim>1</dim>
					<dim>128</dim>
					<dim>4</dim>
					<dim>4</dim>
				</port>
			</output>
		</layer>
		<layer id="379" name="1543" type="Const" version="opset1">
			<data element_type="f32" shape="128, 1, 1, 2, 1" offset="23327240" size="1024"/>
			<output>
				<port id="0" precision="FP32" names="1543">
					<dim>128</dim>
					<dim>1</dim>
					<dim>1</dim>
					<dim>2</dim>
					<dim>1</dim>
				</port>
			</output>
		</layer>
		<layer id="380" name="ConvTranspose_71" type="GroupConvolutionBackpropData" version="opset1">
			<data strides="2, 1" pads_begin="0, 0" pads_end="0, 0" dilations="1, 1" auto_pad="explicit" output_padding="0, 0"/>
			<input>
				<port id="0" precision="FP32">
					<dim>1</dim>
					<dim>128</dim>
					<dim>4</dim>
					<dim>4</dim>
				</port>
				<port id="1" precision="FP32">
					<dim>128</dim>
					<dim>1</dim>
					<dim>1</dim>
					<dim>2</dim>
					<dim>1</dim>
				</port>
			</input>
			<output>
				<port id="2" precision="FP32" names="321">
					<dim>1</dim>
					<dim>128</dim>
					<dim>8</dim>
					<dim>4</dim>
				</port>
			</output>
		</layer>
		<layer id="381" name="Squeeze_67/Dims" type="Const" version="opset1">
			<data element_type="i64" shape="1" offset="23328288" size="8"/>
			<output>
				<port id="0" precision="I64">
					<dim>1</dim>
				</port>
			</output>
		</layer>
		<layer id="382" name="Squeeze_67" type="Squeeze" version="opset1">
			<input>
				<port id="0" precision="FP32">
					<dim>1</dim>
					<dim>128</dim>
					<dim>1</dim>
					<dim>4</dim>
					<dim>4</dim>
				</port>
				<port id="1" precision="I64">
					<dim>1</dim>
				</port>
			</input>
			<output>
				<port id="2" precision="FP32" names="305">
					<dim>1</dim>
					<dim>128</dim>
					<dim>4</dim>
					<dim>4</dim>
				</port>
			</output>
		</layer>
		<layer id="383" name="1544" type="Const" version="opset1">
			<data element_type="f32" shape="128, 1, 1, 2, 1" offset="23328320" size="1024"/>
			<output>
				<port id="0" precision="FP32" names="1544">
					<dim>128</dim>
					<dim>1</dim>
					<dim>1</dim>
					<dim>2</dim>
					<dim>1</dim>
				</port>
			</output>
		</layer>
		<layer id="384" name="ConvTranspose_72" type="GroupConvolutionBackpropData" version="opset1">
			<data strides="2, 1" pads_begin="0, 0" pads_end="0, 0" dilations="1, 1" auto_pad="explicit" output_padding="0, 0"/>
			<input>
				<port id="0" precision="FP32">
					<dim>1</dim>
					<dim>128</dim>
					<dim>4</dim>
					<dim>4</dim>
				</port>
				<port id="1" precision="FP32">
					<dim>128</dim>
					<dim>1</dim>
					<dim>1</dim>
					<dim>2</dim>
					<dim>1</dim>
				</port>
			</input>
			<output>
				<port id="2" precision="FP32" names="322">
					<dim>1</dim>
					<dim>128</dim>
					<dim>8</dim>
					<dim>4</dim>
				</port>
			</output>
		</layer>
		<layer id="385" name="Add_73" type="Add" version="opset1">
			<data auto_broadcast="numpy"/>
			<input>
				<port id="0" precision="FP32">
					<dim>1</dim>
					<dim>128</dim>
					<dim>8</dim>
					<dim>4</dim>
				</port>
				<port id="1" precision="FP32">
					<dim>1</dim>
					<dim>128</dim>
					<dim>8</dim>
					<dim>4</dim>
				</port>
			</input>
			<output>
				<port id="2" precision="FP32" names="323">
					<dim>1</dim>
					<dim>128</dim>
					<dim>8</dim>
					<dim>4</dim>
				</port>
			</output>
		</layer>
		<layer id="386" name="1548" type="Const" version="opset1">
			<data element_type="f32" shape="128, 1, 1, 1, 2" offset="23328320" size="1024"/>
			<output>
				<port id="0" precision="FP32" names="1548">
					<dim>128</dim>
					<dim>1</dim>
					<dim>1</dim>
					<dim>1</dim>
					<dim>2</dim>
				</port>
			</output>
		</layer>
		<layer id="387" name="ConvTranspose_75" type="GroupConvolutionBackpropData" version="opset1">
			<data strides="1, 2" pads_begin="0, 0" pads_end="0, 0" dilations="1, 1" auto_pad="explicit" output_padding="0, 0"/>
			<input>
				<port id="0" precision="FP32">
					<dim>1</dim>
					<dim>128</dim>
					<dim>8</dim>
					<dim>4</dim>
				</port>
				<port id="1" precision="FP32">
					<dim>128</dim>
					<dim>1</dim>
					<dim>1</dim>
					<dim>1</dim>
					<dim>2</dim>
				</port>
			</input>
			<output>
				<port id="2" precision="FP32" names="331">
					<dim>1</dim>
					<dim>128</dim>
					<dim>8</dim>
					<dim>8</dim>
				</port>
			</output>
		</layer>
		<layer id="388" name="Add_76" type="Add" version="opset1">
			<data auto_broadcast="numpy"/>
			<input>
				<port id="0" precision="FP32">
					<dim>1</dim>
					<dim>128</dim>
					<dim>8</dim>
					<dim>8</dim>
				</port>
				<port id="1" precision="FP32">
					<dim>1</dim>
					<dim>128</dim>
					<dim>8</dim>
					<dim>8</dim>
				</port>
			</input>
			<output>
				<port id="2" precision="FP32" names="332">
					<dim>1</dim>
					<dim>128</dim>
					<dim>8</dim>
					<dim>8</dim>
				</port>
			</output>
		</layer>
		<layer id="389" name="Mul_86" type="Multiply" version="opset1">
			<data auto_broadcast="numpy"/>
			<input>
				<port id="0" precision="FP32">
					<dim>1</dim>
					<dim>128</dim>
					<dim>1</dim>
					<dim>1</dim>
				</port>
				<port id="1" precision="FP32">
					<dim>1</dim>
					<dim>128</dim>
					<dim>8</dim>
					<dim>8</dim>
				</port>
			</input>
			<output>
				<port id="2" precision="FP32" names="348">
					<dim>1</dim>
					<dim>128</dim>
					<dim>8</dim>
					<dim>8</dim>
				</port>
			</output>
		</layer>
		<layer id="390" name="m.layers.0.conv1.conv.weight_dw" type="Const" version="opset1">
			<data element_type="f32" shape="128, 1, 1, 3, 3" offset="23329344" size="4608"/>
			<output>
				<port id="0" precision="FP32" names="m.layers.0.conv1.conv.weight_dw">
					<dim>128</dim>
					<dim>1</dim>
					<dim>1</dim>
					<dim>3</dim>
					<dim>3</dim>
				</port>
			</output>
		</layer>
		<layer id="391" name="Conv_87" type="GroupConvolution" version="opset1">
			<data strides="1, 1" pads_begin="1, 1" pads_end="1, 1" dilations="1, 1" auto_pad="explicit"/>
			<input>
				<port id="0" precision="FP32">
					<dim>1</dim>
					<dim>128</dim>
					<dim>8</dim>
					<dim>8</dim>
				</port>
				<port id="1" precision="FP32">
					<dim>128</dim>
					<dim>1</dim>
					<dim>1</dim>
					<dim>3</dim>
					<dim>3</dim>
				</port>
			</input>
			<output>
				<port id="2" precision="FP32" names="349">
					<dim>1</dim>
					<dim>128</dim>
					<dim>8</dim>
					<dim>8</dim>
				</port>
			</output>
		</layer>
		<layer id="392" name="Mul_106_copy" type="Const" version="opset1">
			<data element_type="f32" shape="512, 128, 1, 1" offset="23333952" size="262144"/>
			<output>
				<port id="0" precision="FP32" names="m.layers.0.conv1.conv.weight_permute">
					<dim>512</dim>
					<dim>128</dim>
					<dim>1</dim>
					<dim>1</dim>
				</port>
			</output>
		</layer>
		<layer id="393" name="Conv_88" type="Convolution" version="opset1">
			<data strides="1, 1" dilations="1, 1" pads_begin="0, 0" pads_end="0, 0" auto_pad="explicit"/>
			<input>
				<port id="0" precision="FP32">
					<dim>1</dim>
					<dim>128</dim>
					<dim>8</dim>
					<dim>8</dim>
				</port>
				<port id="1" precision="FP32">
					<dim>512</dim>
					<dim>128</dim>
					<dim>1</dim>
					<dim>1</dim>
				</port>
			</input>
			<output>
				<port id="2" precision="FP32" names="380">
					<dim>1</dim>
					<dim>512</dim>
					<dim>8</dim>
					<dim>8</dim>
				</port>
			</output>
		</layer>
		<layer id="394" name="1560" type="Const" version="opset1">
			<data element_type="f32" shape="1, 1, 8, 8" offset="23596096" size="256"/>
			<output>
				<port id="0" precision="FP32" names="1560">
					<dim>1</dim>
					<dim>1</dim>
					<dim>8</dim>
					<dim>8</dim>
				</port>
			</output>
		</layer>
		<layer id="395" name="Add_107" type="Add" version="opset1">
			<data auto_broadcast="numpy"/>
			<input>
				<port id="0" precision="FP32">
					<dim>1</dim>
					<dim>512</dim>
					<dim>8</dim>
					<dim>8</dim>
				</port>
				<port id="1" precision="FP32">
					<dim>1</dim>
					<dim>1</dim>
					<dim>8</dim>
					<dim>8</dim>
				</port>
			</input>
			<output>
				<port id="2" precision="FP32" names="382">
					<dim>1</dim>
					<dim>512</dim>
					<dim>8</dim>
					<dim>8</dim>
				</port>
			</output>
		</layer>
		<layer id="396" name="m.layers.0.conv1.bias" type="Const" version="opset1">
			<data element_type="f32" shape="1, 512, 1, 1" offset="23596352" size="2048"/>
			<output>
				<port id="0" precision="FP32" names="m.layers.0.conv1.bias">
					<dim>1</dim>
					<dim>512</dim>
					<dim>1</dim>
					<dim>1</dim>
				</port>
			</output>
		</layer>
		<layer id="397" name="Add_108" type="Add" version="opset1">
			<data auto_broadcast="numpy"/>
			<input>
				<port id="0" precision="FP32">
					<dim>1</dim>
					<dim>512</dim>
					<dim>8</dim>
					<dim>8</dim>
				</port>
				<port id="1" precision="FP32">
					<dim>1</dim>
					<dim>512</dim>
					<dim>1</dim>
					<dim>1</dim>
				</port>
			</input>
			<output>
				<port id="2" precision="FP32" names="383">
					<dim>1</dim>
					<dim>512</dim>
					<dim>8</dim>
					<dim>8</dim>
				</port>
			</output>
		</layer>
		<layer id="398" name="LeakyRelu_109/weights2839240828" type="Const" version="opset1">
			<data element_type="f32" shape="1" offset="23327220" size="4"/>
			<output>
				<port id="0" precision="FP32">
					<dim>1</dim>
				</port>
			</output>
		</layer>
		<layer id="399" name="LeakyRelu_109" type="PReLU" version="opset1">
			<input>
				<port id="0" precision="FP32">
					<dim>1</dim>
					<dim>512</dim>
					<dim>8</dim>
					<dim>8</dim>
				</port>
				<port id="1" precision="FP32">
					<dim>1</dim>
				</port>
			</input>
			<output>
				<port id="2" precision="FP32" names="384">
					<dim>1</dim>
					<dim>512</dim>
					<dim>8</dim>
					<dim>8</dim>
				</port>
			</output>
		</layer>
		<layer id="400" name="Mul_119" type="Multiply" version="opset1">
			<data auto_broadcast="numpy"/>
			<input>
				<port id="0" precision="FP32">
					<dim>1</dim>
					<dim>512</dim>
					<dim>1</dim>
					<dim>1</dim>
				</port>
				<port id="1" precision="FP32">
					<dim>1</dim>
					<dim>512</dim>
					<dim>8</dim>
					<dim>8</dim>
				</port>
			</input>
			<output>
				<port id="2" precision="FP32" names="400">
					<dim>1</dim>
					<dim>512</dim>
					<dim>8</dim>
					<dim>8</dim>
				</port>
			</output>
		</layer>
		<layer id="401" name="m.layers.0.conv2.conv.weight_dw" type="Const" version="opset1">
			<data element_type="f32" shape="512, 1, 1, 3, 3" offset="23598400" size="18432"/>
			<output>
				<port id="0" precision="FP32" names="m.layers.0.conv2.conv.weight_dw">
					<dim>512</dim>
					<dim>1</dim>
					<dim>1</dim>
					<dim>3</dim>
					<dim>3</dim>
				</port>
			</output>
		</layer>
		<layer id="402" name="Conv_120" type="GroupConvolution" version="opset1">
			<data strides="1, 1" pads_begin="1, 1" pads_end="1, 1" dilations="1, 1" auto_pad="explicit"/>
			<input>
				<port id="0" precision="FP32">
					<dim>1</dim>
					<dim>512</dim>
					<dim>8</dim>
					<dim>8</dim>
				</port>
				<port id="1" precision="FP32">
					<dim>512</dim>
					<dim>1</dim>
					<dim>1</dim>
					<dim>3</dim>
					<dim>3</dim>
				</port>
			</input>
			<output>
				<port id="2" precision="FP32" names="401">
					<dim>1</dim>
					<dim>512</dim>
					<dim>8</dim>
					<dim>8</dim>
				</port>
			</output>
		</layer>
		<layer id="403" name="Mul_139_copy" type="Const" version="opset1">
			<data element_type="f32" shape="512, 512, 1, 1" offset="23616832" size="1048576"/>
			<output>
				<port id="0" precision="FP32" names="m.layers.0.conv2.conv.weight_permute">
					<dim>512</dim>
					<dim>512</dim>
					<dim>1</dim>
					<dim>1</dim>
				</port>
			</output>
		</layer>
		<layer id="404" name="Conv_121" type="Convolution" version="opset1">
			<data strides="1, 1" dilations="1, 1" pads_begin="0, 0" pads_end="0, 0" auto_pad="explicit"/>
			<input>
				<port id="0" precision="FP32">
					<dim>1</dim>
					<dim>512</dim>
					<dim>8</dim>
					<dim>8</dim>
				</port>
				<port id="1" precision="FP32">
					<dim>512</dim>
					<dim>512</dim>
					<dim>1</dim>
					<dim>1</dim>
				</port>
			</input>
			<output>
				<port id="2" precision="FP32" names="432">
					<dim>1</dim>
					<dim>512</dim>
					<dim>8</dim>
					<dim>8</dim>
				</port>
			</output>
		</layer>
		<layer id="405" name="1572" type="Const" version="opset1">
			<data element_type="f32" shape="1, 1, 8, 8" offset="24665408" size="256"/>
			<output>
				<port id="0" precision="FP32" names="1572">
					<dim>1</dim>
					<dim>1</dim>
					<dim>8</dim>
					<dim>8</dim>
				</port>
			</output>
		</layer>
		<layer id="406" name="Add_140" type="Add" version="opset1">
			<data auto_broadcast="numpy"/>
			<input>
				<port id="0" precision="FP32">
					<dim>1</dim>
					<dim>512</dim>
					<dim>8</dim>
					<dim>8</dim>
				</port>
				<port id="1" precision="FP32">
					<dim>1</dim>
					<dim>1</dim>
					<dim>8</dim>
					<dim>8</dim>
				</port>
			</input>
			<output>
				<port id="2" precision="FP32" names="434">
					<dim>1</dim>
					<dim>512</dim>
					<dim>8</dim>
					<dim>8</dim>
				</port>
			</output>
		</layer>
		<layer id="407" name="m.layers.0.conv2.bias" type="Const" version="opset1">
			<data element_type="f32" shape="1, 512, 1, 1" offset="24665664" size="2048"/>
			<output>
				<port id="0" precision="FP32" names="m.layers.0.conv2.bias">
					<dim>1</dim>
					<dim>512</dim>
					<dim>1</dim>
					<dim>1</dim>
				</port>
			</output>
		</layer>
		<layer id="408" name="Add_141" type="Add" version="opset1">
			<data auto_broadcast="numpy"/>
			<input>
				<port id="0" precision="FP32">
					<dim>1</dim>
					<dim>512</dim>
					<dim>8</dim>
					<dim>8</dim>
				</port>
				<port id="1" precision="FP32">
					<dim>1</dim>
					<dim>512</dim>
					<dim>1</dim>
					<dim>1</dim>
				</port>
			</input>
			<output>
				<port id="2" precision="FP32" names="435">
					<dim>1</dim>
					<dim>512</dim>
					<dim>8</dim>
					<dim>8</dim>
				</port>
			</output>
		</layer>
		<layer id="409" name="LeakyRelu_142/weights2840839709" type="Const" version="opset1">
			<data element_type="f32" shape="1" offset="23327220" size="4"/>
			<output>
				<port id="0" precision="FP32">
					<dim>1</dim>
				</port>
			</output>
		</layer>
		<layer id="410" name="LeakyRelu_142" type="PReLU" version="opset1">
			<input>
				<port id="0" precision="FP32">
					<dim>1</dim>
					<dim>512</dim>
					<dim>8</dim>
					<dim>8</dim>
				</port>
				<port id="1" precision="FP32">
					<dim>1</dim>
				</port>
			</input>
			<output>
				<port id="2" precision="FP32" names="436">
					<dim>1</dim>
					<dim>512</dim>
					<dim>8</dim>
					<dim>8</dim>
				</port>
			</output>
		</layer>
		<layer id="411" name="Shape_143" type="ShapeOf" version="opset3">
			<data output_type="i64"/>
			<input>
				<port id="0" precision="FP32">
					<dim>1</dim>
					<dim>512</dim>
					<dim>8</dim>
					<dim>8</dim>
				</port>
			</input>
			<output>
				<port id="1" precision="I64" names="437">
					<dim>4</dim>
				</port>
			</output>
		</layer>
		<layer id="412" name="Constant_144" type="Const" version="opset1">
			<data element_type="i32" shape="" offset="131328" size="4"/>
			<output>
				<port id="0" precision="I32" names="438"/>
			</output>
		</layer>
		<layer id="413" name="Gather_145/axis" type="Const" version="opset1">
			<data element_type="i64" shape="" offset="131332" size="8"/>
			<output>
				<port id="0" precision="I64"/>
			</output>
		</layer>
		<layer id="414" name="Gather_1451534" type="Gather" version="opset7">
			<data batch_dims="0"/>
			<input>
				<port id="0" precision="I64">
					<dim>4</dim>
				</port>
				<port id="1" precision="I32"/>
				<port id="2" precision="I64"/>
			</input>
			<output>
				<port id="3" precision="I64" names="439"/>
			</output>
		</layer>
		<layer id="415" name="Unsqueeze_153/Dims" type="Const" version="opset1">
			<data element_type="i64" shape="1" offset="131332" size="8"/>
			<output>
				<port id="0" precision="I64">
					<dim>1</dim>
				</port>
			</output>
		</layer>
		<layer id="416" name="Unsqueeze_153/Unsqueeze" type="Unsqueeze" version="opset1">
			<input>
				<port id="0" precision="I64"/>
				<port id="1" precision="I64">
					<dim>1</dim>
				</port>
			</input>
			<output>
				<port id="2" precision="I64" names="450">
					<dim>1</dim>
				</port>
			</output>
		</layer>
		<layer id="417" name="1573" type="Const" version="opset1">
			<data element_type="i64" shape="1" offset="131340" size="8"/>
			<output>
				<port id="0" precision="I64" names="1573">
					<dim>1</dim>
				</port>
			</output>
		</layer>
		<layer id="418" name="1574" type="Const" version="opset1">
			<data element_type="i64" shape="1" offset="131348" size="8"/>
			<output>
				<port id="0" precision="I64" names="1574">
					<dim>1</dim>
				</port>
			</output>
		</layer>
		<layer id="419" name="1575" type="Const" version="opset1">
			<data element_type="i64" shape="1" offset="131348" size="8"/>
			<output>
				<port id="0" precision="I64" names="1575">
					<dim>1</dim>
				</port>
			</output>
		</layer>
		<layer id="420" name="Concat_154" type="Concat" version="opset1">
			<data axis="0"/>
			<input>
				<port id="0" precision="I64">
					<dim>1</dim>
				</port>
				<port id="1" precision="I64">
					<dim>1</dim>
				</port>
				<port id="2" precision="I64">
					<dim>1</dim>
				</port>
				<port id="3" precision="I64">
					<dim>1</dim>
				</port>
			</input>
			<output>
				<port id="4" precision="I64" names="454">
					<dim>4</dim>
				</port>
			</output>
		</layer>
		<layer id="421" name="Reshape_155" type="Reshape" version="opset1">
			<data special_zero="true"/>
			<input>
				<port id="0" precision="FP32">
					<dim>1</dim>
					<dim>512</dim>
				</port>
				<port id="1" precision="I64">
					<dim>4</dim>
				</port>
			</input>
			<output>
				<port id="2" precision="FP32" names="455">
					<dim>1</dim>
					<dim>512</dim>
					<dim>1</dim>
					<dim>1</dim>
				</port>
			</output>
		</layer>
		<layer id="422" name="Mul_156" type="Multiply" version="opset1">
			<data auto_broadcast="numpy"/>
			<input>
				<port id="0" precision="FP32">
					<dim>1</dim>
					<dim>512</dim>
					<dim>1</dim>
					<dim>1</dim>
				</port>
				<port id="1" precision="FP32">
					<dim>1</dim>
					<dim>512</dim>
					<dim>8</dim>
					<dim>8</dim>
				</port>
			</input>
			<output>
				<port id="2" precision="FP32" names="456">
					<dim>1</dim>
					<dim>512</dim>
					<dim>8</dim>
					<dim>8</dim>
				</port>
			</output>
		</layer>
		<layer id="423" name="1410541068" type="Const" version="opset1">
			<data element_type="i64" shape="" offset="131348" size="8"/>
			<output>
				<port id="0" precision="I64"/>
			</output>
		</layer>
		<layer id="424" name="1410739769" type="Const" version="opset1">
			<data element_type="i64" shape="2" offset="23327224" size="16"/>
			<output>
				<port id="0" precision="I64">
					<dim>2</dim>
				</port>
			</output>
		</layer>
		<layer id="425" name="Slice_157/Split" type="VariadicSplit" version="opset1">
			<input>
				<port id="0" precision="FP32">
					<dim>1</dim>
					<dim>512</dim>
					<dim>8</dim>
					<dim>8</dim>
				</port>
				<port id="1" precision="I64"/>
				<port id="2" precision="I64">
					<dim>2</dim>
				</port>
			</input>
			<output>
				<port id="3" precision="FP32" names="457">
					<dim>1</dim>
					<dim>128</dim>
					<dim>8</dim>
					<dim>8</dim>
				</port>
				<port id="4" precision="FP32" names="458">
					<dim>1</dim>
					<dim>384</dim>
					<dim>8</dim>
					<dim>8</dim>
				</port>
			</output>
		</layer>
		<layer id="426" name="1580" type="Const" version="opset1">
			<data element_type="f32" shape="128, 1, 1, 2, 1" offset="23327240" size="1024"/>
			<output>
				<port id="0" precision="FP32" names="1580">
					<dim>128</dim>
					<dim>1</dim>
					<dim>1</dim>
					<dim>2</dim>
					<dim>1</dim>
				</port>
			</output>
		</layer>
		<layer id="427" name="ConvTranspose_168" type="GroupConvolutionBackpropData" version="opset1">
			<data strides="2, 1" pads_begin="0, 0" pads_end="0, 0" dilations="1, 1" auto_pad="explicit" output_padding="0, 0"/>
			<input>
				<port id="0" precision="FP32">
					<dim>1</dim>
					<dim>128</dim>
					<dim>8</dim>
					<dim>8</dim>
				</port>
				<port id="1" precision="FP32">
					<dim>128</dim>
					<dim>1</dim>
					<dim>1</dim>
					<dim>2</dim>
					<dim>1</dim>
				</port>
			</input>
			<output>
				<port id="2" precision="FP32" names="480">
					<dim>1</dim>
					<dim>128</dim>
					<dim>16</dim>
					<dim>8</dim>
				</port>
			</output>
		</layer>
		<layer id="428" name="Unsqueeze_159/Dims" type="Const" version="opset1">
			<data element_type="i64" shape="1" offset="131332" size="8"/>
			<output>
				<port id="0" precision="I64">
					<dim>1</dim>
				</port>
			</output>
		</layer>
		<layer id="429" name="Unsqueeze_159/Unsqueeze" type="Unsqueeze" version="opset1">
			<input>
				<port id="0" precision="I64"/>
				<port id="1" precision="I64">
					<dim>1</dim>
				</port>
			</input>
			<output>
				<port id="2" precision="I64" names="461">
					<dim>1</dim>
				</port>
			</output>
		</layer>
		<layer id="430" name="1576" type="Const" version="opset1">
			<data element_type="i64" shape="1" offset="23328264" size="8"/>
			<output>
				<port id="0" precision="I64" names="1576">
					<dim>1</dim>
				</port>
			</output>
		</layer>
…
		<edge from-layer="289" from-port="0" to-layer="291" to-port="1"/>
		<edge from-layer="290" from-port="0" to-layer="291" to-port="2"/>
		<edge from-layer="291" from-port="3" to-layer="293" to-port="0"/>
		<edge from-layer="292" from-port="0" to-layer="293" to-port="1"/>
		<edge from-layer="293" from-port="2" to-layer="297" to-port="0"/>
		<edge from-layer="294" from-port="0" to-layer="297" to-port="1"/>
		<edge from-layer="295" from-port="0" to-layer="297" to-port="2"/>
		<edge from-layer="296" from-port="0" to-layer="297" to-port="3"/>
		<edge from-layer="297" from-port="4" to-layer="298" to-port="1"/>
		<edge from-layer="298" from-port="2" to-layer="300" to-port="0"/>
		<edge from-layer="299" from-port="0" to-layer="300" to-port="1"/>
		<edge from-layer="300" from-port="2" to-layer="323" to-port="0"/>
		<edge from-layer="301" from-port="0" to-layer="315" to-port="0"/>
		<edge from-layer="302" from-port="0" to-layer="314" to-port="0"/>
		<edge from-layer="303" from-port="1" to-layer="306" to-port="0"/>
		<edge from-layer="304" from-port="0" to-layer="306" to-port="1"/>
		<edge from-layer="305" from-port="0" to-layer="306" to-port="2"/>
		<edge from-layer="306" from-port="3" to-layer="317" to-port="0"/>
		<edge from-layer="306" from-port="3" to-layer="308" to-port="0"/>
		<edge from-layer="307" from-port="0" to-layer="308" to-port="1"/>
		<edge from-layer="308" from-port="2" to-layer="312" to-port="0"/>
		<edge from-layer="309" from-port="0" to-layer="312" to-port="1"/>
		<edge from-layer="310" from-port="0" to-layer="312" to-port="2"/>
		<edge from-layer="311" from-port="0" to-layer="312" to-port="3"/>
		<edge from-layer="312" from-port="4" to-layer="313" to-port="0"/>
		<edge from-layer="313" from-port="1" to-layer="314" to-port="1"/>
		<edge from-layer="314" from-port="2" to-layer="315" to-port="1"/>
		<edge from-layer="315" from-port="2" to-layer="322" to-port="0"/>
		<edge from-layer="316" from-port="0" to-layer="317" to-port="1"/>
		<edge from-layer="317" from-port="2" to-layer="321" to-port="0"/>
		<edge from-layer="318" from-port="0" to-layer="321" to-port="1"/>
		<edge from-layer="319" from-port="0" to-layer="321" to-port="2"/>
		<edge from-layer="320" from-port="0" to-layer="321" to-port="3"/>
		<edge from-layer="321" from-port="4" to-layer="322" to-port="1"/>
		<edge from-layer="322" from-port="2" to-layer="323" to-port="1"/>
		<edge from-layer="323" from-port="2" to-layer="325" to-port="0"/>
		<edge from-layer="324" from-port="0" to-layer="325" to-port="1"/>
		<edge from-layer="325" from-port="2" to-layer="327" to-port="0"/>
		<edge from-layer="326" from-port="0" to-layer="327" to-port="1"/>
		<edge from-layer="327" from-port="2" to-layer="329" to-port="0"/>
		<edge from-layer="328" from-port="0" to-layer="329" to-port="1"/>
		<edge from-layer="329" from-port="2" to-layer="331" to-port="0"/>
		<edge from-layer="330" from-port="0" to-layer="331" to-port="1"/>
		<edge from-layer="331" from-port="2" to-layer="343" to-port="1"/>
		<edge from-layer="331" from-port="2" to-layer="332" to-port="0"/>
		<edge from-layer="331" from-port="2" to-layer="353" to-port="0"/>
		<edge from-layer="331" from-port="2" to-layer="359" to-port="0"/>
		<edge from-layer="332" from-port="1" to-layer="335" to-port="0"/>
		<edge from-layer="333" from-port="0" to-layer="335" to-port="1"/>
		<edge from-layer="334" from-port="0" to-layer="335" to-port="2"/>
		<edge from-layer="335" from-port="3" to-layer="337" to-port="0"/>
		<edge from-layer="335" from-port="3" to-layer="350" to-port="0"/>
		<edge from-layer="336" from-port="0" to-layer="337" to-port="1"/>
		<edge from-layer="337" from-port="2" to-layer="341" to-port="0"/>
		<edge from-layer="338" from-port="0" to-layer="341" to-port="1"/>
		<edge from-layer="339" from-port="0" to-layer="341" to-port="2"/>
		<edge from-layer="340" from-port="0" to-layer="341" to-port="3"/>
		<edge from-layer="341" from-port="4" to-layer="342" to-port="1"/>
		<edge from-layer="342" from-port="2" to-layer="343" to-port="0"/>
		<edge from-layer="343" from-port="2" to-layer="346" to-port="0"/>
		<edge from-layer="344" from-port="0" to-layer="346" to-port="1"/>
		<edge from-layer="345" from-port="0" to-layer="346" to-port="2"/>
		<edge from-layer="346" from-port="4" to-layer="366" to-port="0"/>
		<edge from-layer="346" from-port="3" to-layer="348" to-port="0"/>
		<edge from-layer="347" from-port="0" to-layer="348" to-port="1"/>
		<edge from-layer="348" from-port="2" to-layer="374" to-port="0"/>
		<edge from-layer="349" from-port="0" to-layer="350" to-port="1"/>
		<edge from-layer="350" from-port="2" to-layer="365" to-port="0"/>
		<edge from-layer="351" from-port="0" to-layer="365" to-port="1"/>
		<edge from-layer="352" from-port="0" to-layer="365" to-port="2"/>
		<edge from-layer="353" from-port="1" to-layer="356" to-port="0"/>
		<edge from-layer="354" from-port="0" to-layer="356" to-port="1"/>
		<edge from-layer="355" from-port="0" to-layer="356" to-port="2"/>
		<edge from-layer="356" from-port="3" to-layer="358" to-port="0"/>
		<edge from-layer="357" from-port="0" to-layer="358" to-port="1"/>
		<edge from-layer="358" from-port="2" to-layer="365" to-port="3"/>
		<edge from-layer="359" from-port="1" to-layer="362" to-port="0"/>
		<edge from-layer="360" from-port="0" to-layer="362" to-port="1"/>
		<edge from-layer="361" from-port="0" to-layer="362" to-port="2"/>
		<edge from-layer="362" from-port="3" to-layer="364" to-port="0"/>
		<edge from-layer="363" from-port="0" to-layer="364" to-port="1"/>
		<edge from-layer="364" from-port="2" to-layer="365" to-port="4"/>
		<edge from-layer="365" from-port="5" to-layer="366" to-port="1"/>
		<edge from-layer="366" from-port="2" to-layer="369" to-port="0"/>
		<edge from-layer="367" from-port="0" to-layer="369" to-port="1"/>
		<edge from-layer="368" from-port="0" to-layer="369" to-port="2"/>
		<edge from-layer="369" from-port="3" to-layer="371" to-port="0"/>
		<edge from-layer="369" from-port="4" to-layer="378" to-port="0"/>
		<edge from-layer="369" from-port="5" to-layer="382" to-port="0"/>
		<edge from-layer="370" from-port="0" to-layer="371" to-port="1"/>
		<edge from-layer="371" from-port="2" to-layer="373" to-port="0"/>
		<edge from-layer="372" from-port="0" to-layer="373" to-port="1"/>
		<edge from-layer="373" from-port="2" to-layer="374" to-port="1"/>
		<edge from-layer="374" from-port="2" to-layer="376" to-port="0"/>
		<edge from-layer="375" from-port="0" to-layer="376" to-port="1"/>
		<edge from-layer="376" from-port="2" to-layer="388" to-port="0"/>
		<edge from-layer="377" from-port="0" to-layer="378" to-port="1"/>
		<edge from-layer="378" from-port="2" to-layer="380" to-port="0"/>
		<edge from-layer="379" from-port="0" to-layer="380" to-port="1"/>
		<edge from-layer="380" from-port="2" to-layer="385" to-port="0"/>
		<edge from-layer="381" from-port="0" to-layer="382" to-port="1"/>
		<edge from-layer="382" from-port="2" to-layer="384" to-port="0"/>
		<edge from-layer="383" from-port="0" to-layer="384" to-port="1"/>
		<edge from-layer="384" from-port="2" to-layer="385" to-port="1"/>
		<edge from-layer="385" from-port="2" to-layer="387" to-port="0"/>
		<edge from-layer="386" from-port="0" to-layer="387" to-port="1"/>
		<edge from-layer="387" from-port="2" to-layer="388" to-port="1"/>
		<edge from-layer="388" from-port="2" to-layer="389" to-port="1"/>
		<edge from-layer="389" from-port="2" to-layer="391" to-port="0"/>
		<edge from-layer="390" from-port="0" to-layer="391" to-port="1"/>
		<edge from-layer="391" from-port="2" to-layer="393" to-port="0"/>
		<edge from-layer="392" from-port="0" to-layer="393" to-port="1"/>
		<edge from-layer="393" from-port="2" to-layer="395" to-port="0"/>
		<edge from-layer="394" from-port="0" to-layer="395" to-port="1"/>
		<edge from-layer="395" from-port="2" to-layer="397" to-port="0"/>
		<edge from-layer="396" from-port="0" to-layer="397" to-port="1"/>
		<edge from-layer="397" from-port="2" to-layer="399" to-port="0"/>
		<edge from-layer="398" from-port="0" to-layer="399" to-port="1"/>
		<edge from-layer="399" from-port="2" to-layer="400" to-port="1"/>
		<edge from-layer="400" from-port="2" to-layer="402" to-port="0"/>
		<edge from-layer="401" from-port="0" to-layer="402" to-port="1"/>
		<edge from-layer="402" from-port="2" to-layer="404" to-port="0"/>
		<edge from-layer="403" from-port="0" to-layer="404" to-port="1"/>
		<edge from-layer="404" from-port="2" to-layer="406" to-port="0"/>
		<edge from-layer="405" from-port="0" to-layer="406" to-port="1"/>
		<edge from-layer="406" from-port="2" to-layer="408" to-port="0"/>
		<edge from-layer="407" from-port="0" to-layer="408" to-port="1"/>
		<edge from-layer="408" from-port="2" to-layer="410" to-port="0"/>
		<edge from-layer="409" from-port="0" to-layer="410" to-port="1"/>
		<edge from-layer="410" from-port="2" to-layer="432" to-port="0"/>
		<edge from-layer="410" from-port="2" to-layer="438" to-port="0"/>
		<edge from-layer="410" from-port="2" to-layer="422" to-port="1"/>
		<edge from-layer="410" from-port="2" to-layer="411" to-port="0"/>
		<edge from-layer="411" from-port="1" to-layer="414" to-port="0"/>
		<edge from-layer="412" from-port="0" to-layer="414" to-port="1"/>
		<edge from-layer="413" from-port="0" to-layer="414" to-port="2"/>
		<edge from-layer="414" from-port="3" to-layer="429" to-port="0"/>
		<edge from-layer="414" from-port="3" to-layer="416" to-port="0"/>
		<edge from-layer="415" from-port="0" to-layer="416" to-port="1"/>
		<edge from-layer="416" from-port="2" to-layer="420" to-port="0"/>
		<edge from-layer="417" from-port="0" to-layer="420" to-port="1"/>
		<edge from-layer="418" from-port="0" to-layer="420" to-port="2"/>
		<edge from-layer="419" from-port="0" to-layer="420" to-port="3"/>
		<edge from-layer="420" from-port="4" to-layer="421" to-port="1"/>
		<edge from-layer="421" from-port="2" to-layer="422" to-port="0"/>
		<edge from-layer="422" from-port="2" to-layer="425" to-port="0"/>
		<edge from-layer="423" from-port="0" to-layer="425" to-port="1"/>
		<edge from-layer="424" from-port="0" to-layer="425" to-port="2"/>
		<edge from-layer="425" from-port="3" to-layer="427" to-port="0"/>
		<edge from-layer="425" from-port="4" to-layer="445" to-port="0"/>
		<edge from-layer="426" from-port="0" to-layer="427" to-port="1"/>
		<edge from-layer="427" from-port="2" to-layer="453" to-port="0"/>
		<edge from-layer="428" from-port="0" to-layer="429" to-port="1"/>
		<edge from-layer="429" from-port="2" to-layer="444" to-port="0"/>
		<edge from-layer="430" from-port="0" to-layer="444" to-port="1"/>
		<edge from-layer="431" from-port="0" to-layer="444" to-port="2"/>
		<edge from-layer="432" from-port="1" to-layer="435" to-port="0"/>
		<edge from-layer="433" from-port="0" to-layer="435" to-port="1"/>
		<edge from-layer="434" from-port="0" to-layer="435" to-port="2"/>
		<edge from-layer="435" from-port="3" to-layer="437" to-port="0"/>
		<edge from-layer="436" from-port="0" to-layer="437" to-port="1"/>
		<edge from-layer="437" from-port="2" to-layer="444" to-port="3"/>
		<edge from-layer="438" from-port="1" to-layer="441" to-port="0"/>
		<edge from-layer="439" from-port="0" to-layer="441" to-port="1"/>
		<edge from-layer="440" from-port="0" to-layer="441" to-port="2"/>
		<edge from-layer="441" from-port="3" to-layer="443" to-port="0"/>
		<edge from-layer="442" from-port="0" to-layer="443" to-port="1"/>
		<edge from-layer="443" from-port="2" to-layer="444" to-port="4"/>
		<edge from-layer="444" from-port="5" to-layer="445" to-port="1"/>
		<edge from-layer="445" from-port="2" to-layer="448" to-port="0"/>
		<edge from-layer="446" from-port="0" to-layer="448" to-port="1"/>
		<edge from-layer="447" from-port="0" to-layer="448" to-port="2"/>
		<edge from-layer="448" from-port="4" to-layer="457" to-port="0"/>
		<edge from-layer="448" from-port="5" to-layer="461" to-port="0"/>
		<edge from-layer="448" from-port="3" to-layer="450" to-port="0"/>
		<edge from-layer="449" from-port="0" to-layer="450" to-port="1"/>
		<edge from-layer="450" from-port="2" to-layer="452" to-port="0"/>
		<edge from-layer="451" from-port="0" to-layer="452" to-port="1"/>
		<edge from-layer="452" from-port="2" to-layer="453" to-port="1"/>
		<edge from-layer="453" from-port="2" to-layer="455" to-port="0"/>
		<edge from-layer="454" from-port="0" to-layer="455" to-port="1"/>
		<edge from-layer="455" from-port="2" to-layer="467" to-port="0"/>
		<edge from-layer="456" from-port="0" to-layer="457" to-port="1"/>
		<edge from-layer="457" from-port="2" to-layer="459" to-port="0"/>
		<edge from-layer="458" from-port="0" to-layer="459" to-port="1"/>
		<edge from-layer="459" from-port="2" to-layer="464" to-port="0"/>
		<edge from-layer="460" from-port="0" to-layer="461" to-port="1"/>
		<edge from-layer="461" from-port="2" to-layer="463" to-port="0"/>
		<edge from-layer="462" from-port="0" to-layer="463" to-port="1"/>
		<edge from-layer="463" from-port="2" to-layer="464" to-port="1"/>
		<edge from-layer="464" from-port="2" to-layer="466" to-port="0"/>
		<edge from-layer="465" from-port="0" to-layer="466" to-port="1"/>
		<edge from-layer="466" from-port="2" to-layer="467" to-port="1"/>
		<edge from-layer="467" from-port="2" to-layer="468" to-port="1"/>
		<edge from-layer="468" from-port="2" to-layer="470" to-port="0"/>
		<edge from-layer="469" from-port="0" to-layer="470" to-port="1"/>
		<edge from-layer="470" from-port="2" to-layer="472" to-port="0"/>
		<edge from-layer="471" from-port="0" to-layer="472" to-port="1"/>
		<edge from-layer="472" from-port="2" to-layer="474" to-port="0"/>
		<edge from-layer="473" from-port="0" to-layer="474" to-port="1"/>
		<edge from-layer="474" from-port="2" to-layer="476" to-port="0"/>
		<edge from-layer="475" from-port="0" to-layer="476" to-port="1"/>
		<edge from-layer="476" from-port="2" to-layer="478" to-port="0"/>
		<edge from-layer="477" from-port="0" to-layer="478" to-port="1"/>
		<edge from-layer="478" from-port="2" to-layer="479" to-port="1"/>
		<edge from-layer="479" from-port="2" to-layer="481" to-port="0"/>
		<edge from-layer="480" from-port="0" to-layer="481" to-port="1"/>
		<edge from-layer="481" from-port="2" to-layer="483" to-port="0"/>
		<edge from-layer="482" from-port="0" to-layer="483" to-port="1"/>
		<edge from-layer="483" from-port="2" to-layer="485" to-port="0"/>
		<edge from-layer="484" from-port="0" to-layer="485" to-port="1"/>
		<edge from-layer="485" from-port="2" to-layer="487" to-port="0"/>
		<edge from-layer="486" from-port="0" to-layer="487" to-port="1"/>
		<edge from-layer="487" from-port="2" to-layer="489" to-port="0"/>
		<edge from-layer="488" from-port="0" to-layer="489" to-port="1"/>
		<edge from-layer="489" from-port="2" to-layer="501" to-port="1"/>
		<edge from-layer="489" from-port="2" to-layer="490" to-port="0"/>
		<edge from-layer="489" from-port="2" to-layer="511" to-port="0"/>
		<edge from-layer="489" from-port="2" to-layer="517" to-port="0"/>
		<edge from-layer="490" from-port="1" to-layer="493" to-port="0"/>
		<edge from-layer="491" from-port="0" to-layer="493" to-port="1"/>
		<edge from-layer="492" from-port="0" to-layer="493" to-port="2"/>
		<edge from-layer="493" from-port="3" to-layer="508" to-port="0"/>
		<edge from-layer="493" from-port="3" to-layer="495" to-port="0"/>
		<edge from-layer="494" from-port="0" to-layer="495" to-port="1"/>
		<edge from-layer="495" from-port="2" to-layer="499" to-port="0"/>
		<edge from-layer="496" from-port="0" to-layer="499" to-port="1"/>
		<edge from-layer="497" from-port="0" to-layer="499" to-port="2"/>
		<edge from-layer="498" from-port="0" to-layer="499" to-port="3"/>
		<edge from-layer="499" from-port="4" to-layer="500" to-port="1"/>
		<edge from-layer="500" from-port="2" to-layer="501" to-port="0"/>
		<edge from-layer="501" from-port="2" to-layer="504" to-port="0"/>
		<edge from-layer="502" from-port="0" to-layer="504" to-port="1"/>
		<edge from-layer="503" from-port="0" to-layer="504" to-port="2"/>
		<edge from-layer="504" from-port="3" to-layer="506" to-port="0"/>
		<edge from-layer="504" from-port="4" to-layer="524" to-port="0"/>
		<edge from-layer="505" from-port="0" to-layer="506" to-port="1"/>
		<edge from-layer="506" from-port="2" to-layer="532" to-port="0"/>
		<edge from-layer="507" from-port="0" to-layer="508" to-port="1"/>
		<edge from-layer="508" from-port="2" to-layer="523" to-port="0"/>
		<edge from-layer="509" from-port="0" to-layer="523" to-port="1"/>
		<edge from-layer="510" from-port="0" to-layer="523" to-port="2"/>
		<edge from-layer="511" from-port="1" to-layer="514" to-port="0"/>
		<edge from-layer="512" from-port="0" to-layer="514" to-port="1"/>
		<edge from-layer="513" from-port="0" to-layer="514" to-port="2"/>
		<edge from-layer="514" from-port="3" to-layer="516" to-port="0"/>
		<edge from-layer="515" from-port="0" to-layer="516" to-port="1"/>
		<edge from-layer="516" from-port="2" to-layer="523" to-port="3"/>
		<edge from-layer="517" from-port="1" to-layer="520" to-port="0"/>
		<edge from-layer="518" from-port="0" to-layer="520" to-port="1"/>
		<edge from-layer="519" from-port="0" to-layer="520" to-port="2"/>
		<edge from-layer="520" from-port="3" to-layer="522" to-port="0"/>
		<edge from-layer="521" from-port="0" to-layer="522" to-port="1"/>
		<edge from-layer="522" from-port="2" to-layer="523" to-port="4"/>
		<edge from-layer="523" from-port="5" to-layer="524" to-port="1"/>
		<edge from-layer="524" from-port="2" to-layer="527" to-port="0"/>
		<edge from-layer="525" from-port="0" to-layer="527" to-port="1"/>
		<edge from-layer="526" from-port="0" to-layer="527" to-port="2"/>
		<edge from-layer="527" from-port="4" to-layer="536" to-port="0"/>
		<edge from-layer="527" from-port="3" to-layer="529" to-port="0"/>
		<edge from-layer="527" from-port="5" to-layer="540" to-port="0"/>
		<edge from-layer="528" from-port="0" to-layer="529" to-port="1"/>
		<edge from-layer="529" from-port="2" to-layer="531" to-port="0"/>
		<edge from-layer="530" from-port="0" to-layer="531" to-port="1"/>
		<edge from-layer="531" from-port="2" to-layer="532" to-port="1"/>
		<edge from-layer="532" from-port="2" to-layer="534" to-port="0"/>
		<edge from-layer="533" from-port="0" to-layer="534" to-port="1"/>
		<edge from-layer="534" from-port="2" to-layer="546" to-port="0"/>
		<edge from-layer="535" from-port="0" to-layer="536" to-port="1"/>
		<edge from-layer="536" from-port="2" to-layer="538" to-port="0"/>
		<edge from-layer="537" from-port="0" to-layer="538" to-port="1"/>
		<edge from-layer="538" from-port="2" to-layer="543" to-port="0"/>
		<edge from-layer="539" from-port="0" to-layer="540" to-port="1"/>
		<edge from-layer="540" from-port="2" to-layer="542" to-port="0"/>
		<edge from-layer="541" from-port="0" to-layer="542" to-port="1"/>
		<edge from-layer="542" from-port="2" to-layer="543" to-port="1"/>
		<edge from-layer="543" from-port="2" to-layer="545" to-port="0"/>
		<edge from-layer="544" from-port="0" to-layer="545" to-port="1"/>
		<edge from-layer="545" from-port="2" to-layer="546" to-port="1"/>
		<edge from-layer="546" from-port="2" to-layer="547" to-port="1"/>
		<edge from-layer="547" from-port="2" to-layer="549" to-port="0"/>
		<edge from-layer="548" from-port="0" to-layer="549" to-port="1"/>
		<edge from-layer="549" from-port="2" to-layer="551" to-port="0"/>
		<edge from-layer="550" from-port="0" to-layer="551" to-port="1"/>
		<edge from-layer="551" from-port="2" to-layer="553" to-port="0"/>
		<edge from-layer="552" from-port="0" to-layer="553" to-port="1"/>
		<edge from-layer="553" from-port="2" to-layer="555" to-port="0"/>
		<edge from-layer="554" from-port="0" to-layer="555" to-port="1"/>
		<edge from-layer="555" from-port="2" to-layer="557" to-port="0"/>
		<edge from-layer="556" from-port="0" to-layer="557" to-port="1"/>
		<edge from-layer="557" from-port="2" to-layer="558" to-port="1"/>
		<edge from-layer="558" from-port="2" to-layer="560" to-port="0"/>
		<edge from-layer="559" from-port="0" to-layer="560" to-port="1"/>
		<edge from-layer="560" from-port="2" to-layer="562" to-port="0"/>
		<edge from-layer="561" from-port="0" to-layer="562" to-port="1"/>
		<edge from-layer="562" from-port="2" to-layer="564" to-port="0"/>
		<edge from-layer="563" from-port="0" to-layer="564" to-port="1"/>
		<edge from-layer="564" from-port="2" to-layer="566" to-port="0"/>
		<edge from-layer="565" from-port="0" to-layer="566" to-port="1"/>
		<edge from-layer="566" from-port="2" to-layer="568" to-port="0"/>
		<edge from-layer="567" from-port="0" to-layer="568" to-port="1"/>
		<edge from-layer="568" from-port="2" to-layer="580" to-port="1"/>
		<edge from-layer="568" from-port="2" to-layer="590" to-port="0"/>
		<edge from-layer="568" from-port="2" to-layer="569" to-port="0"/>
		<edge from-layer="568" from-port="2" to-layer="596" to-port="0"/>
		<edge from-layer="569" from-port="1" to-layer="572" to-port="0"/>
		<edge from-layer="570" from-port="0" to-layer="572" to-port="1"/>
		<edge from-layer="571" from-port="0" to-layer="572" to-port="2"/>
		<edge from-layer="572" from-port="3" to-layer="574" to-port="0"/>
		<edge from-layer="572" from-port="3" to-layer="587" to-port="0"/>
		<edge from-layer="573" from-port="0" to-layer="574" to-port="1"/>
		<edge from-layer="574" from-port="2" to-layer="578" to-port="0"/>
		<edge from-layer="575" from-port="0" to-layer="578" to-port="1"/>
		<edge from-layer="576" from-port="0" to-layer="578" to-port="2"/>
		<edge from-layer="577" from-port="0" to-layer="578" to-port="3"/>
		<edge from-layer="578" from-port="4" to-layer="579" to-port="1"/>
		<edge from-layer="579" from-port="2" to-layer="580" to-port="0"/>
		<edge from-layer="580" from-port="2" to-layer="583" to-port="0"/>
		<edge from-layer="581" from-port="0" to-layer="583" to-port="1"/>
		<edge from-layer="582" from-port="0" to-layer="583" to-port="2"/>
		<edge from-layer="583" from-port="4" to-layer="603" to-port="0"/>
		<edge from-layer="583" from-port="3" to-layer="585" to-port="0"/>
		<edge from-layer="584" from-port="0" to-layer="585" to-port="1"/>
		<edge from-layer="585" from-port="2" to-layer="611" to-port="0"/>
		<edge from-layer="586" from-port="0" to-layer="587" to-port="1"/>
		<edge from-layer="587" from-port="2" to-layer="602" to-port="0"/>
		<edge from-layer="588" from-port="0" to-layer="602" to-port="1"/>
		<edge from-layer="589" from-port="0" to-layer="602" to-port="2"/>
		<edge from-layer="590" from-port="1" to-layer="593" to-port="0"/>
		<edge from-layer="591" from-port="0" to-layer="593" to-port="1"/>
		<edge from-layer="592" from-port="0" to-layer="593" to-port="2"/>
		<edge from-layer="593" from-port="3" to-layer="595" to-port="0"/>
		<edge from-layer="594" from-port="0" to-layer="595" to-port="1"/>
		<edge from-layer="595" from-port="2" to-layer="602" to-port="3"/>
		<edge from-layer="596" from-port="1" to-layer="599" to-port="0"/>
		<edge from-layer="597" from-port="0" to-layer="599" to-port="1"/>
		<edge from-layer="598" from-port="0" to-layer="599" to-port="2"/>
		<edge from-layer="599" from-port="3" to-layer="601" to-port="0"/>
		<edge from-layer="600" from-port="0" to-layer="601" to-port="1"/>
		<edge from-layer="601" from-port="2" to-layer="602" to-port="4"/>
		<edge from-layer="602" from-port="5" to-layer="603" to-port="1"/>
		<edge from-layer="603" from-port="2" to-layer="606" to-port="0"/>
		<edge from-layer="604" from-port="0" to-layer="606" to-port="1"/>
		<edge from-layer="605" from-port="0" to-layer="606" to-port="2"/>
		<edge from-layer="606" from-port="4" to-layer="615" to-port="0"/>
		<edge from-layer="606" from-port="3" to-layer="608" to-port="0"/>
		<edge from-layer="606" from-port="5" to-layer="619" to-port="0"/>
		<edge from-layer="607" from-port="0" to-layer="608" to-port="1"/>
		<edge from-layer="608" from-port="2" to-layer="610" to-port="0"/>
		<edge from-layer="609" from-port="0" to-layer="610" to-port="1"/>
		<edge from-layer="610" from-port="2" to-layer="611" to-port="1"/>
		<edge from-layer="611" from-port="2" to-layer="613" to-port="0"/>
		<edge from-layer="612" from-port="0" to-layer="613" to-port="1"/>
		<edge from-layer="613" from-port="2" to-layer="625" to-port="0"/>
		<edge from-layer="614" from-port="0" to-layer="615" to-port="1"/>
		<edge from-layer="615" from-port="2" to-layer="617" to-port="0"/>
		<edge from-layer="616" from-port="0" to-layer="617" to-port="1"/>
		<edge from-layer="617" from-port="2" to-layer="622" to-port="0"/>
		<edge from-layer="618" from-port="0" to-layer="619" to-port="1"/>
		<edge from-layer="619" from-port="2" to-layer="621" to-port="0"/>
		<edge from-layer="620" from-port="0" to-layer="621" to-port="1"/>
		<edge from-layer="621" from-port="2" to-layer="622" to-port="1"/>
		<edge from-layer="622" from-port="2" to-layer="624" to-port="0"/>
		<edge from-layer="623" from-port="0" to-layer="624" to-port="1"/>
		<edge from-layer="624" from-port="2" to-layer="625" to-port="1"/>
		<edge from-layer="625" from-port="2" to-layer="626" to-port="1"/>
		<edge from-layer="626" from-port="2" to-layer="628" to-port="0"/>
		<edge from-layer="627" from-port="0" to-layer="628" to-port="1"/>
		<edge from-layer="628" from-port="2" to-layer="630" to-port="0"/>
		<edge from-layer="629" from-port="0" to-layer="630" to-port="1"/>
		<edge from-layer="630" from-port="2" to-layer="632" to-port="0"/>
		<edge from-layer="631" from-port="0" to-layer="632" to-port="1"/>
		<edge from-layer="632" from-port="2" to-layer="634" to-port="0"/>
		<edge from-layer="633" from-port="0" to-layer="634" to-port="1"/>
		<edge from-layer="634" from-port="2" to-layer="636" to-port="0"/>
		<edge from-layer="635" from-port="0" to-layer="636" to-port="1"/>
		<edge from-layer="636" from-port="2" to-layer="637" to-port="1"/>
		<edge from-layer="637" from-port="2" to-layer="639" to-port="0"/>
		<edge from-layer="638" from-port="0" to-layer="639" to-port="1"/>
		<edge from-layer="639" from-port="2" to-layer="641" to-port="0"/>
		<edge from-layer="640" from-port="0" to-layer="641" to-port="1"/>
		<edge from-layer="641" from-port="2" to-layer="643" to-port="0"/>
		<edge from-layer="642" from-port="0" to-layer="643" to-port="1"/>
		<edge from-layer="643" from-port="2" to-layer="645" to-port="0"/>
		<edge from-layer="644" from-port="0" to-layer="645" to-port="1"/>
		<edge from-layer="645" from-port="2" to-layer="647" to-port="0"/>
		<edge from-layer="646" from-port="0" to-layer="647" to-port="1"/>
		<edge from-layer="647" from-port="2" to-layer="675" to-port="0"/>
		<edge from-layer="647" from-port="2" to-layer="659" to-port="1"/>
		<edge from-layer="647" from-port="2" to-layer="669" to-port="0"/>
		<edge from-layer="647" from-port="2" to-layer="648" to-port="0"/>
		<edge from-layer="648" from-port="1" to-layer="651" to-port="0"/>
		<edge from-layer="649" from-port="0" to-layer="651" to-port="1"/>
		<edge from-layer="650" from-port="0" to-layer="651" to-port="2"/>
		<edge from-layer="651" from-port="3" to-layer="653" to-port="0"/>
		<edge from-layer="651" from-port="3" to-layer="666" to-port="0"/>
		<edge from-layer="652" from-port="0" to-layer="653" to-port="1"/>
		<edge from-layer="653" from-port="2" to-layer="657" to-port="0"/>
		<edge from-layer="654" from-port="0" to-layer="657" to-port="1"/>
		<edge from-layer="655" from-port="0" to-layer="657" to-port="2"/>
		<edge from-layer="656" from-port="0" to-layer="657" to-port="3"/>
		<edge from-layer="657" from-port="4" to-layer="658" to-port="1"/>
		<edge from-layer="658" from-port="2" to-layer="659" to-port="0"/>
		<edge from-layer="659" from-port="2" to-layer="662" to-port="0"/>
		<edge from-layer="660" from-port="0" to-layer="662" to-port="1"/>
		<edge from-layer="661" from-port="0" to-layer="662" to-port="2"/>
		<edge from-layer="662" from-port="3" to-layer="664" to-port="0"/>
		<edge from-layer="662" from-port="4" to-layer="682" to-port="0"/>
		<edge from-layer="663" from-port="0" to-layer="664" to-port="1"/>
		<edge from-layer="664" from-port="2" to-layer="690" to-port="0"/>
		<edge from-layer="665" from-port="0" to-layer="666" to-port="1"/>
		<edge from-layer="666" from-port="2" to-layer="681" to-port="0"/>
		<edge from-layer="667" from-port="0" to-layer="681" to-port="1"/>
		<edge from-layer="668" from-port="0" to-layer="681" to-port="2"/>
		<edge from-layer="669" from-port="1" to-layer="672" to-port="0"/>
		<edge from-layer="670" from-port="0" to-layer="672" to-port="1"/>
		<edge from-layer="671" from-port="0" to-layer="672" to-port="2"/>
		<edge from-layer="672" from-port="3" to-layer="674" to-port="0"/>
		<edge from-layer="673" from-port="0" to-layer="674" to-port="1"/>
		<edge from-layer="674" from-port="2" to-layer="681" to-port="3"/>
		<edge from-layer="675" from-port="1" to-layer="678" to-port="0"/>
		<edge from-layer="676" from-port="0" to-layer="678" to-port="1"/>
		<edge from-layer="677" from-port="0" to-layer="678" to-port="2"/>
		<edge from-layer="678" from-port="3" to-layer="680" to-port="0"/>
		<edge from-layer="679" from-port="0" to-layer="680" to-port="1"/>
		<edge from-layer="680" from-port="2" to-layer="681" to-port="4"/>
		<edge from-layer="681" from-port="5" to-layer="682" to-port="1"/>
		<edge from-layer="682" from-port="2" to-layer="685" to-port="0"/>
		<edge from-layer="683" from-port="0" to-layer="685" to-port="1"/>
		<edge from-layer="684" from-port="0" to-layer="685" to-port="2"/>
		<edge from-layer="685" from-port="3" to-layer="687" to-port="0"/>
		<edge from-layer="685" from-port="5" to-layer="698" to-port="0"/>
		<edge from-layer="685" from-port="4" to-layer="694" to-port="0"/>
		<edge from-layer="686" from-port="0" to-layer="687" to-port="1"/>
		<edge from-layer="687" from-port="2" to-layer="689" to-port="0"/>
		<edge from-layer="688" from-port="0" to-layer="689" to-port="1"/>
		<edge from-layer="689" from-port="2" to-layer="690" to-port="1"/>
		<edge from-layer="690" from-port="2" to-layer="692" to-port="0"/>
		<edge from-layer="691" from-port="0" to-layer="692" to-port="1"/>
		<edge from-layer="692" from-port="2" to-layer="704" to-port="0"/>
		<edge from-layer="693" from-port="0" to-layer="694" to-port="1"/>
		<edge from-layer="694" from-port="2" to-layer="696" to-port="0"/>
		<edge from-layer="695" from-port="0" to-layer="696" to-port="1"/>
		<edge from-layer="696" from-port="2" to-layer="701" to-port="0"/>
		<edge from-layer="697" from-port="0" to-layer="698" to-port="1"/>
		<edge from-layer="698" from-port="2" to-layer="700" to-port="0"/>
		<edge from-layer="699" from-port="0" to-layer="700" to-port="1"/>
		<edge from-layer="700" from-port="2" to-layer="701" to-port="1"/>
		<edge from-layer="701" from-port="2" to-layer="703" to-port="0"/>
		<edge from-layer="702" from-port="0" to-layer="703" to-port="1"/>
		<edge from-layer="703" from-port="2" to-layer="704" to-port="1"/>
		<edge from-layer="704" from-port="2" to-layer="705" to-port="1"/>
		<edge from-layer="705" from-port="2" to-layer="707" to-port="0"/>
		<edge from-layer="706" from-port="0" to-layer="707" to-port="1"/>
		<edge from-layer="707" from-port="2" to-layer="709" to-port="0"/>
		<edge from-layer="708" from-port="0" to-layer="709" to-port="1"/>
		<edge from-layer="709" from-port="2" to-layer="711" to-port="0"/>
		<edge from-layer="710" from-port="0" to-layer="711" to-port="1"/>
		<edge from-layer="711" from-port="2" to-layer="713" to-port="0"/>
		<edge from-layer="712" from-port="0" to-layer="713" to-port="1"/>
		<edge from-layer="713" from-port="2" to-layer="715" to-port="0"/>
		<edge from-layer="714" from-port="0" to-layer="715" to-port="1"/>
		<edge from-layer="715" from-port="2" to-layer="716" to-port="1"/>
		<edge from-layer="716" from-port="2" to-layer="718" to-port="0"/>
		<edge from-layer="717" from-port="0" to-layer="718" to-port="1"/>
		<edge from-layer="718" from-port="2" to-layer="720" to-port="0"/>
		<edge from-layer="719" from-port="0" to-layer="720" to-port="1"/>
		<edge from-layer="720" from-port="2" to-layer="722" to-port="0"/>
		<edge from-layer="721" from-port="0" to-layer="722" to-port="1"/>
		<edge from-layer="722" from-port="2" to-layer="724" to-port="0"/>
		<edge from-layer="723" from-port="0" to-layer="724" to-port="1"/>
		<edge from-layer="724" from-port="2" to-layer="726" to-port="0"/>
		<edge from-layer="725" from-port="0" to-layer="726" to-port="1"/>
		<edge from-layer="726" from-port="2" to-layer="738" to-port="1"/>
		<edge from-layer="726" from-port="2" to-layer="748" to-port="0"/>
		<edge from-layer="726" from-port="2" to-layer="727" to-port="0"/>
		<edge from-layer="726" from-port="2" to-layer="754" to-port="0"/>
		<edge from-layer="727" from-port="1" to-layer="730" to-port="0"/>
		<edge from-layer="728" from-port="0" to-layer="730" to-port="1"/>
		<edge from-layer="729" from-port="0" to-layer="730" to-port="2"/>
		<edge from-layer="730" from-port="3" to-layer="732" to-port="0"/>
		<edge from-layer="730" from-port="3" to-layer="745" to-port="0"/>
		<edge from-layer="731" from-port="0" to-layer="732" to-port="1"/>
		<edge from-layer="732" from-port="2" to-layer="736" to-port="0"/>
		<edge from-layer="733" from-port="0" to-layer="736" to-port="1"/>
		<edge from-layer="734" from-port="0" to-layer="736" to-port="2"/>
		<edge from-layer="735" from-port="0" to-layer="736" to-port="3"/>
		<edge from-layer="736" from-port="4" to-layer="737" to-port="1"/>
		<edge from-layer="737" from-port="2" to-layer="738" to-port="0"/>
		<edge from-layer="738" from-port="2" to-layer="741" to-port="0"/>
		<edge from-layer="739" from-port="0" to-layer="741" to-port="1"/>
		<edge from-layer="740" from-port="0" to-layer="741" to-port="2"/>
		<edge from-layer="741" from-port="3" to-layer="743" to-port="0"/>
		<edge from-layer="741" from-port="4" to-layer="761" to-port="0"/>
		<edge from-layer="742" from-port="0" to-layer="743" to-port="1"/>
		<edge from-layer="743" from-port="2" to-layer="769" to-port="0"/>
		<edge from-layer="744" from-port="0" to-layer="745" to-port="1"/>
		<edge from-layer="745" from-port="2" to-layer="760" to-port="0"/>
		<edge from-layer="746" from-port="0" to-layer="760" to-port="1"/>
		<edge from-layer="747" from-port="0" to-layer="760" to-port="2"/>
		<edge from-layer="748" from-port="1" to-layer="751" to-port="0"/>
		<edge from-layer="749" from-port="0" to-layer="751" to-port="1"/>
		<edge from-layer="750" from-port="0" to-layer="751" to-port="2"/>
		<edge from-layer="751" from-port="3" to-layer="753" to-port="0"/>
		<edge from-layer="752" from-port="0" to-layer="753" to-port="1"/>
		<edge from-layer="753" from-port="2" to-layer="760" to-port="3"/>
		<edge from-layer="754" from-port="1" to-layer="757" to-port="0"/>
		<edge from-layer="755" from-port="0" to-layer="757" to-port="1"/>
		<edge from-layer="756" from-port="0" to-layer="757" to-port="2"/>
		<edge from-layer="757" from-port="3" to-layer="759" to-port="0"/>
		<edge from-layer="758" from-port="0" to-layer="759" to-port="1"/>
		<edge from-layer="759" from-port="2" to-layer="760" to-port="4"/>
		<edge from-layer="760" from-port="5" to-layer="761" to-port="1"/>
		<edge from-layer="761" from-port="2" to-layer="764" to-port="0"/>
		<edge from-layer="762" from-port="0" to-layer="764" to-port="1"/>
		<edge from-layer="763" from-port="0" to-layer="764" to-port="2"/>
		<edge from-layer="764" from-port="3" to-layer="766" to-port="0"/>
		<edge from-layer="764" from-port="4" to-layer="773" to-port="0"/>
		<edge from-layer="764" from-port="5" to-layer="777" to-port="0"/>
		<edge from-layer="765" from-port="0" to-layer="766" to-port="1"/>
		<edge from-layer="766" from-port="2" to-layer="768" to-port="0"/>
		<edge from-layer="767" from-port="0" to-layer="768" to-port="1"/>
		<edge from-layer="768" from-port="2" to-layer="769" to-port="1"/>
		<edge from-layer="769" from-port="2" to-layer="771" to-port="0"/>
		<edge from-layer="770" from-port="0" to-layer="771" to-port="1"/>
		<edge from-layer="771" from-port="2" to-layer="783" to-port="0"/>
		<edge from-layer="772" from-port="0" to-layer="773" to-port="1"/>
		<edge from-layer="773" from-port="2" to-layer="775" to-port="0"/>
		<edge from-layer="774" from-port="0" to-layer="775" to-port="1"/>
		<edge from-layer="775" from-port="2" to-layer="780" to-port="0"/>
		<edge from-layer="776" from-port="0" to-layer="777" to-port="1"/>
		<edge from-layer="777" from-port="2" to-layer="779" to-port="0"/>
		<edge from-layer="778" from-port="0" to-layer="779" to-port="1"/>
		<edge from-layer="779" from-port="2" to-layer="780" to-port="1"/>
		<edge from-layer="780" from-port="2" to-layer="782" to-port="0"/>
		<edge from-layer="781" from-port="0" to-layer="782" to-port="1"/>
		<edge from-layer="782" from-port="2" to-layer="783" to-port="1"/>
		<edge from-layer="783" from-port="2" to-layer="784" to-port="1"/>
		<edge from-layer="784" from-port="2" to-layer="786" to-port="0"/>
		<edge from-layer="785" from-port="0" to-layer="786" to-port="1"/>
		<edge from-layer="786" from-port="2" to-layer="788" to-port="0"/>
		<edge from-layer="787" from-port="0" to-layer="788" to-port="1"/>
		<edge from-layer="788" from-port="2" to-layer="790" to-port="0"/>
		<edge from-layer="789" from-port="0" to-layer="790" to-port="1"/>
		<edge from-layer="790" from-port="2" to-layer="792" to-port="0"/>
		<edge from-layer="791" from-port="0" to-layer="792" to-port="1"/>
		<edge from-layer="792" from-port="2" to-layer="794" to-port="0"/>
		<edge from-layer="793" from-port="0" to-layer="794" to-port="1"/>
		<edge from-layer="794" from-port="2" to-layer="795" to-port="1"/>
		<edge from-layer="795" from-port="2" to-layer="797" to-port="0"/>
		<edge from-layer="796" from-port="0" to-layer="797" to-port="1"/>
		<edge from-layer="797" from-port="2" to-layer="799" to-port="0"/>
		<edge from-layer="798" from-port="0" to-layer="799" to-port="1"/>
		<edge from-layer="799" from-port="2" to-layer="801" to-port="0"/>
		<edge from-layer="800" from-port="0" to-layer="801" to-port="1"/>
		<edge from-layer="801" from-port="2" to-layer="803" to-port="0"/>
		<edge from-layer="802" from-port="0" to-layer="803" to-port="1"/>
		<edge from-layer="803" from-port="2" to-layer="805" to-port="0"/>
		<edge from-layer="804" from-port="0" to-layer="805" to-port="1"/>
		<edge from-layer="805" from-port="2" to-layer="806" to-port="0"/>
		<edge from-layer="805" from-port="2" to-layer="833" to-port="0"/>
		<edge from-layer="805" from-port="2" to-layer="827" to-port="0"/>
		<edge from-layer="805" from-port="2" to-layer="817" to-port="1"/>
		<edge from-layer="806" from-port="1" to-layer="809" to-port="0"/>
		<edge from-layer="807" from-port="0" to-layer="809" to-port="1"/>
		<edge from-layer="808" from-port="0" to-layer="809" to-port="2"/>
		<edge from-layer="809" from-port="3" to-layer="811" to-port="0"/>
		<edge from-layer="809" from-port="3" to-layer="824" to-port="0"/>
		<edge from-layer="810" from-port="0" to-layer="811" to-port="1"/>
		<edge from-layer="811" from-port="2" to-layer="815" to-port="0"/>
		<edge from-layer="812" from-port="0" to-layer="815" to-port="1"/>
		<edge from-layer="813" from-port="0" to-layer="815" to-port="2"/>
		<edge from-layer="814" from-port="0" to-layer="815" to-port="3"/>
		<edge from-layer="815" from-port="4" to-layer="816" to-port="1"/>
		<edge from-layer="816" from-port="2" to-layer="817" to-port="0"/>
		<edge from-layer="817" from-port="2" to-layer="820" to-port="0"/>
		<edge from-layer="818" from-port="0" to-layer="820" to-port="1"/>
		<edge from-layer="819" from-port="0" to-layer="820" to-port="2"/>
		<edge from-layer="820" from-port="3" to-layer="822" to-port="0"/>
		<edge from-layer="820" from-port="4" to-layer="840" to-port="0"/>
		<edge from-layer="821" from-port="0" to-layer="822" to-port="1"/>
		<edge from-layer="822" from-port="2" to-layer="848" to-port="0"/>
		<edge from-layer="823" from-port="0" to-layer="824" to-port="1"/>
		<edge from-layer="824" from-port="2" to-layer="839" to-port="0"/>
		<edge from-layer="825" from-port="0" to-layer="839" to-port="1"/>
		<edge from-layer="826" from-port="0" to-layer="839" to-port="2"/>
		<edge from-layer="827" from-port="1" to-layer="830" to-port="0"/>
		<edge from-layer="828" from-port="0" to-layer="830" to-port="1"/>
		<edge from-layer="829" from-port="0" to-layer="830" to-port="2"/>
		<edge from-layer="830" from-port="3" to-layer="832" to-port="0"/>
		<edge from-layer="831" from-port="0" to-layer="832" to-port="1"/>
		<edge from-layer="832" from-port="2" to-layer="839" to-port="3"/>
		<edge from-layer="833" from-port="1" to-layer="836" to-port="0"/>
		<edge from-layer="834" from-port="0" to-layer="836" to-port="1"/>
		<edge from-layer="835" from-port="0" to-layer="836" to-port="2"/>
		<edge from-layer="836" from-port="3" to-layer="838" to-port="0"/>
		<edge from-layer="837" from-port="0" to-layer="838" to-port="1"/>
		<edge from-layer="838" from-port="2" to-layer="839" to-port="4"/>
		<edge from-layer="839" from-port="5" to-layer="840" to-port="1"/>
		<edge from-layer="840" from-port="2" to-layer="843" to-port="0"/>
		<edge from-layer="841" from-port="0" to-layer="843" to-port="1"/>
		<edge from-layer="842" from-port="0" to-layer="843" to-port="2"/>
		<edge from-layer="843" from-port="3" to-layer="845" to-port="0"/>
		<edge from-layer="843" from-port="4" to-layer="852" to-port="0"/>
		<edge from-layer="843" from-port="5" to-layer="856" to-port="0"/>
		<edge from-layer="844" from-port="0" to-layer="845" to-port="1"/>
		<edge from-layer="845" from-port="2" to-layer="847" to-port="0"/>
		<edge from-layer="846" from-port="0" to-layer="847" to-port="1"/>
		<edge from-layer="847" from-port="2" to-layer="848" to-port="1"/>
		<edge from-layer="848" from-port="2" to-layer="850" to-port="0"/>
		<edge from-layer="849" from-port="0" to-layer="850" to-port="1"/>
		<edge from-layer="850" from-port="2" to-layer="862" to-port="0"/>
		<edge from-layer="851" from-port="0" to-layer="852" to-port="1"/>
		<edge from-layer="852" from-port="2" to-layer="854" to-port="0"/>
		<edge from-layer="853" from-port="0" to-layer="854" to-port="1"/>
		<edge from-layer="854" from-port="2" to-layer="859" to-port="0"/>
		<edge from-layer="855" from-port="0" to-layer="856" to-port="1"/>
		<edge from-layer="856" from-port="2" to-layer="858" to-port="0"/>
		<edge from-layer="857" from-port="0" to-layer="858" to-port="1"/>
		<edge from-layer="858" from-port="2" to-layer="859" to-port="1"/>
		<edge from-layer="859" from-port="2" to-layer="861" to-port="0"/>
		<edge from-layer="860" from-port="0" to-layer="861" to-port="1"/>
		<edge from-layer="861" from-port="2" to-layer="862" to-port="1"/>
		<edge from-layer="862" from-port="2" to-layer="863" to-port="1"/>
		<edge from-layer="863" from-port="2" to-layer="865" to-port="0"/>
		<edge from-layer="864" from-port="0" to-layer="865" to-port="1"/>
		<edge from-layer="865" from-port="2" to-layer="867" to-port="0"/>
		<edge from-layer="866" from-port="0" to-layer="867" to-port="1"/>
		<edge from-layer="867" from-port="2" to-layer="869" to-port="0"/>
		<edge from-layer="868" from-port="0" to-layer="869" to-port="1"/>
		<edge from-layer="869" from-port="2" to-layer="871" to-port="0"/>
		<edge from-layer="870" from-port="0" to-layer="871" to-port="1"/>
		<edge from-layer="871" from-port="2" to-layer="873" to-port="0"/>
		<edge from-layer="872" from-port="0" to-layer="873" to-port="1"/>
		<edge from-layer="873" from-port="2" to-layer="874" to-port="1"/>
		<edge from-layer="874" from-port="2" to-layer="876" to-port="0"/>
		<edge from-layer="875" from-port="0" to-layer="876" to-port="1"/>
		<edge from-layer="876" from-port="2" to-layer="878" to-port="0"/>
		<edge from-layer="877" from-port="0" to-layer="878" to-port="1"/>
		<edge from-layer="878" from-port="2" to-layer="880" to-port="0"/>
		<edge from-layer="879" from-port="0" to-layer="880" to-port="1"/>
		<edge from-layer="880" from-port="2" to-layer="882" to-port="0"/>
		<edge from-layer="881" from-port="0" to-layer="882" to-port="1"/>
		<edge from-layer="882" from-port="2" to-layer="884" to-port="0"/>
		<edge from-layer="883" from-port="0" to-layer="884" to-port="1"/>
		<edge from-layer="884" from-port="2" to-layer="885" to-port="1"/>
		<edge from-layer="885" from-port="2" to-layer="887" to-port="0"/>
		<edge from-layer="886" from-port="0" to-layer="887" to-port="1"/>
		<edge from-layer="887" from-port="2" to-layer="889" to-port="0"/>
		<edge from-layer="888" from-port="0" to-layer="889" to-port="1"/>
		<edge from-layer="889" from-port="2" to-layer="892" to-port="0"/>
		<edge from-layer="889" from-port="2" to-layer="895" to-port="0"/>
		<edge from-layer="889" from-port="2" to-layer="903" to-port="0"/>
		<edge from-layer="889" from-port="2" to-layer="909" to-port="0"/>
		<edge from-layer="890" from-port="0" to-layer="892" to-port="1"/>
		<edge from-layer="891" from-port="0" to-layer="892" to-port="2"/>
		<edge from-layer="892" from-port="3" to-layer="894" to-port="0"/>
		<edge from-layer="892" from-port="4" to-layer="916" to-port="0"/>
		<edge from-layer="893" from-port="0" to-layer="894" to-port="1"/>
		<edge from-layer="894" from-port="2" to-layer="924" to-port="0"/>
		<edge from-layer="895" from-port="1" to-layer="898" to-port="0"/>
		<edge from-layer="896" from-port="0" to-layer="898" to-port="1"/>
		<edge from-layer="897" from-port="0" to-layer="898" to-port="2"/>
		<edge from-layer="898" from-port="3" to-layer="900" to-port="0"/>
		<edge from-layer="899" from-port="0" to-layer="900" to-port="1"/>
		<edge from-layer="900" from-port="2" to-layer="915" to-port="0"/>
		<edge from-layer="901" from-port="0" to-layer="915" to-port="1"/>
		<edge from-layer="902" from-port="0" to-layer="915" to-port="2"/>
		<edge from-layer="903" from-port="1" to-layer="906" to-port="0"/>
		<edge from-layer="904" from-port="0" to-layer="906" to-port="1"/>
		<edge from-layer="905" from-port="0" to-layer="906" to-port="2"/>
		<edge from-layer="906" from-port="3" to-layer="908" to-port="0"/>
		<edge from-layer="907" from-port="0" to-layer="908" to-port="1"/>
		<edge from-layer="908" from-port="2" to-layer="915" to-port="3"/>
		<edge from-layer="909" from-port="1" to-layer="912" to-port="0"/>
		<edge from-layer="910" from-port="0" to-layer="912" to-port="1"/>
		<edge from-layer="911" from-port="0" to-layer="912" to-port="2"/>
		<edge from-layer="912" from-port="3" to-layer="914" to-port="0"/>
		<edge from-layer="913" from-port="0" to-layer="914" to-port="1"/>
		<edge from-layer="914" from-port="2" to-layer="915" to-port="4"/>
		<edge from-layer="915" from-port="5" to-layer="916" to-port="1"/>
		<edge from-layer="916" from-port="2" to-layer="919" to-port="0"/>
		<edge from-layer="917" from-port="0" to-layer="919" to-port="1"/>
		<edge from-layer="918" from-port="0" to-layer="919" to-port="2"/>
		<edge from-layer="919" from-port="3" to-layer="921" to-port="0"/>
		<edge from-layer="919" from-port="4" to-layer="928" to-port="0"/>
		<edge from-layer="919" from-port="5" to-layer="932" to-port="0"/>
		<edge from-layer="920" from-port="0" to-layer="921" to-port="1"/>
		<edge from-layer="921" from-port="2" to-layer="923" to-port="0"/>
		<edge from-layer="922" from-port="0" to-layer="923" to-port="1"/>
		<edge from-layer="923" from-port="2" to-layer="924" to-port="1"/>
		<edge from-layer="924" from-port="2" to-layer="926" to-port="0"/>
		<edge from-layer="925" from-port="0" to-layer="926" to-port="1"/>
		<edge from-layer="926" from-port="2" to-layer="938" to-port="0"/>
		<edge from-layer="927" from-port="0" to-layer="928" to-port="1"/>
		<edge from-layer="928" from-port="2" to-layer="930" to-port="0"/>
		<edge from-layer="929" from-port="0" to-layer="930" to-port="1"/>
		<edge from-layer="930" from-port="2" to-layer="935" to-port="0"/>
		<edge from-layer="931" from-port="0" to-layer="932" to-port="1"/>
		<edge from-layer="932" from-port="2" to-layer="934" to-port="0"/>
		<edge from-layer="933" from-port="0" to-layer="934" to-port="1"/>
		<edge from-layer="934" from-port="2" to-layer="935" to-port="1"/>
		<edge from-layer="935" from-port="2" to-layer="937" to-port="0"/>
		<edge from-layer="936" from-port="0" to-layer="937" to-port="1"/>
		<edge from-layer="937" from-port="2" to-layer="938" to-port="1"/>
		<edge from-layer="938" from-port="2" to-layer="939" to-port="0"/>
	</edges>
	<meta_data>
		<MO_version value="2021.4.0-3839-cd81789d294-releases/2021/4"/>
		<cli_parameters>
			<caffe_parser_path value="DIR"/>
			<data_type value="float"/>
			<disable_nhwc_to_nchw value="False"/>
			<disable_omitting_optional value="False"/>
			<disable_resnet_optimization value="False"/>
			<disable_weights_compression value="False"/>
			<enable_concat_optimization value="False"/>
			<enable_flattening_nested_params value="False"/>
			<enable_ssd_gluoncv value="False"/>
			<extensions value="DIR"/>
			<framework value="onnx"/>
			<freeze_placeholder_with_value value="{}"/>
			<generate_deprecated_IR_V7 value="False"/>
			<input_model value="DIR/SynthesisNetwork.onnx"/>
			<input_model_is_text value="False"/>
			<k value="DIR/CustomLayersMapping.xml"/>
			<keep_shape_ops value="True"/>
			<legacy_ir_generation value="False"/>
			<legacy_mxnet_model value="False"/>
			<log_level value="ERROR"/>
			<mean_scale_values value="{}"/>
			<mean_values value="()"/>
			<model_name value="SynthesisNetwork"/>
			<output_dir value="DIR"/>
			<placeholder_data_types value="{}"/>
			<progress value="False"/>
			<remove_memory value="False"/>
			<remove_output_softmax value="False"/>
			<reverse_input_channels value="False"/>
			<save_params_from_nd value="False"/>
			<scale_values value="()"/>
			<silent value="False"/>
			<static_shape value="False"/>
			<stream_output value="False"/>
			<transform value=""/>
			<unset unset_cli_parameters="batch, counts, disable_fusing, disable_gfusing, finegrain_fusing, input, input_checkpoint, input_meta_graph, input_proto, input_shape, input_symbol, mean_file, mean_file_offsets, move_to_preprocess, nd_prefix_name, output, placeholder_shapes, pretrained_model_name, saved_model_dir, saved_model_tags, scale, tensorboard_logdir, tensorflow_custom_layer_libraries, tensorflow_custom_operations_config_update, tensorflow_object_detection_api_pipeline_config, tensorflow_use_custom_operations_config, transformations_config"/>
		</cli_parameters>
	</meta_data>
</net>
